save/1_CNN.pth (torch, 119539 bytes, 20 tensors)

weight f4 [5, 1, 3]
0	0x3e5667f8	0.20938098
1	0x3e98ffe3	0.29882726
2	0x3ea58d5a	0.32334405
3	0x3ea02938	0.31281447
4	0x3e1c48da	0.15262166
5	0xbebbb6d2	-0.36662918
6	0xbf1de613	-0.6167919
7	0xbddf0740	-0.10890055
8	0x3eee4235	0.46534887
9	0x3ca69b6f	0.020337788
10	0xbe00ac7a	-0.12565795
11	0x3e4ad873	0.19809131
12	0x3e993b8d	0.29928246
13	0xbe77b2f0	-0.24189353
14	0xbe0791a0	-0.13239145

bias f4 [5]
0	0xbdcf6b01	-0.10127831
1	0x3dd81da5	0.10552529
2	0xbe97b2da	-0.2962864
3	0xbeb66dd7	-0.35630676
4	0xbf00a02b	-0.50244397

weight f4 [5]
0	0x3f7aa0b2	0.9790145
1	0x3f8a4eea	1.0805333
2	0x3f6881a8	0.9082284
3	0x3f7cac4f	0.9870042
4	0x3f7fa350	0.9985857

bias f4 [5]
0	0x3d379787	0.044822242
1	0xbcced2e5	-0.025247047
2	0x3d1fe938	0.039040774
3	0x3d81ab25	0.06331471
4	0x3d74f26f	0.059801515

running_mean f4 [5]
0	0x3d522fe8	0.05131522
1	0x3da30570	0.079600215
2	0x3b9e21a3	0.004825787
3	0x2944cf0c	4.3700327e-14
4	0x00000004	6e-45

running_var f4 [5]
0	0x3d1a659c	0.03769456
1	0x3b61d052	0.0034456444
2	0x3a83fbb2	0.0010069518
3	0x25260a9f	1.4401803e-16
4	0x00000004	6e-45

weight f4 [10, 5, 4]
0	0xba840e4f	-0.0010075065
1	0x3d95e22d	0.0731853
2	0xbcbbacb0	-0.022909492
3	0xbe1abc48	-0.15110886
4	0x3e400f58	0.18755853
5	0xbdddd170	-0.10830963
6	0xbd2094d0	-0.03920442
7	0x3ca62b61	0.020284357
8	0xbe20af81	-0.1569195
9	0x3ce15a78	0.02750896
10	0xbde5cdc2	-0.11220886
11	0x3e1b263c	0.15151304
12	0x3e573805	0.21017464
13	0xbe21e0e1	-0.1580844
14	0x3e087d08	0.13328946
15	0xbda21eb2	-0.07916011
16	0x3e85ad91	0.26108983
17	0x3dc97c1a	0.098381236
18	0x3e0b760c	0.1361925
19	0x3dfa324a	0.12216623
20	0xbd472b1f	-0.048625108
21	0x3e52162c	0.2051627
22	0x3daf5dd5	0.08562819
23	0xbd79b82c	-0.060966656
24	0xbd97e600	-0.07416916
25	0xbe88f0ee	-0.26746315
26	0xbe1c7736	-0.1527985
27	0xbe013e24	-0.12621361
28	0x3d315c18	0.043300718
29	0xbd2d2ae1	-0.04227722
30	0xbaf673f4	-0.0018802867
31	0xbcc5f0e9	-0.024162726
32	0x3e4c768d	0.19967099
33	0x3e1f131a	0.1553463
34	0x3cd91b74	0.026502348
35	0xbd0d04b8	-0.03442833
36	0x3d16b3d8	0.036792606
37	0xbe620d89	-0.22075476
38	0xbe52b5ef	-0.20577215
39	0xbe68bd67	-0.22728501
40	0xbe827083	-0.25476465
41	0x3e457ee9	0.19286694
42	0xbdcb2cdb	-0.09920665
43	0xbe28f855	-0.16500981
44	0x3d943c75	0.07238094
45	0x3e3359ed	0.17514773
46	0x3df1d0c3	0.11807396
47	0x3d4f5306	0.050616287
48	0x3dc65479	0.09684081
49	0xbda08a11	-0.07838834
50	0x3e369c1d	0.1783299
51	0xbe2866d9	-0.16445483
52	0x3e126207	0.14295207
53	0xbe1998a9	-0.14999641
54	0xbe8f7eb2	-0.28026348
55	0xbc657190	-0.014004126
56	0x3d5d0350	0.053958237
57	0x3d429d4c	0.04751329
58	0x3dad1491	0.08451188
59	0xbdb0a13b	-0.08624502
60	0xbd79680e	-0.06089025
61	0xbda49060	-0.0803535
62	0x3ce75bec	0.028242074
63	0xbdbe40b8	-0.09289688
64	0x3e027bfa	0.12742606
65	0x3c4a6ff9	0.012355798
66	0xbe9ba1a1	-0.3039675
67	0x3c735970	0.0148528665
68	0x3d4ae46c	0.049534246
69	0xbdd6bd3e	-0.10485314
70	0x3dbc3461	0.09189678
71	0x3c578b65	0.013155793
72	0x3e717c6d	0.23582621
73	0x3e0a2a8f	0.13492797
74	0x3d52812e	0.051392727
75	0x3e232345	0.15931423
76	0x3e88eb28	0.2674191
77	0x3e0d048f	0.1377127
78	0xbbf54f5b	-0.0074862665
79	0xbd94dc6d	-0.072686054
80	0xbe3e5b5e	-0.18589541
81	0xbe2ab09b	-0.16668932
82	0xbd111c19	-0.035427187
83	0x3d7aecf1	0.06126112
84	0xbe4b4394	-0.19849998
85	0xbd5c5976	-0.053796254
86	0x3abc6629	0.0014373708
87	0x3e71c632	0.23610762
88	0x3d1bc290	0.038027346
89	0xbdc26624	-0.09492138
90	0xbe084a03	-0.13309483
91	0x3ca8aae1	0.020589294
92	0xbe70e598	-0.23525083
93	0xbd9d795a	-0.076891616
94	0xbe2848b3	-0.16433983
95	0xbe62dbe0	-0.22154188
96	0xbead5d0c	-0.33860052
97	0xbd9db948	-0.07701355
98	0xbe92b4a0	-0.2865343
99	0x3da39ec8	0.079892695
100	0x3de88285	0.113530196
101	0x3d0df2f0	0.03465551
102	0x3e0d34e7	0.13789712
103	0x3b1a446e	0.0023539322
104	0xbe7bc99a	-0.24588624
105	0xbe56bc12	-0.2097018
106	0xbe0cc7f3	-0.1374815
107	0x3e353d47	0.17699157
108	0x3dc378be	0.09544514
109	0x3d202839	0.03910086
110	0x3c7e4ab3	0.015520739
111	0xbddbb539	-0.10727925
112	0x3df5fd79	0.12011237
113	0xbd338de7	-0.0438365
114	0x3d7c77a0	0.06163752
115	0x3e6bff06	0.23046502
116	0xbe35bc2d	-0.17747565
117	0xbd38e8b3	-0.045143794
118	0x3e578ba7	0.21049367
119	0x3e2ecfd5	0.17071469
120	0xbd3b01bc	-0.04565595
121	0xbdf6fb6d	-0.120596744
122	0x3e32d2ff	0.17463301
123	0xbd8f3495	-0.06992451
124	0xbe59e74a	-0.21279636
125	0x3e3b8d90	0.1831572
126	0x3da6891e	0.08131622
127	0xbc332ea9	-0.010936418
128	0xbce5fbca	-0.028074164
129	0xbdd60e22	-0.10451914
130	0x3e04bcee	0.12962696
131	0xbe396431	-0.18104626
132	0x3e4d695d	0.20059724
133	0x3e0cd18c	0.13751811
134	0xbdfcf588	-0.12351519
135	0x3e0fa791	0.14028765
136	0xbdbefbca	-0.09325369
137	0x3dfad109	0.122469015
138	0x3e233281	0.15937234
139	0xbdd467bf	-0.103713505
140	0x3e71ba4e	0.23606226
141	0xbdca8e2c	-0.098903984
142	0xbe60e681	-0.2196293
143	0x3d33982c	0.043846294
144	0xbbe712b2	-0.007051789
145	0xbd21cd5b	-0.039502483
146	0xbdfb6a66	-0.12276153
147	0x3dbfafd1	0.09359706
148	0x3c7888a6	0.015169298
149	0x3c8e23da	0.01735108
150	0x3d5b9727	0.053610947
151	0xbdb87a65	-0.0900772
152	0x3e6e1c65	0.23253019
153	0xbe2672b7	-0.16254698
154	0x3e51db67	0.20493852
155	0x3c800019	0.015625047
156	0x3e84d4af	0.25943515
157	0x3e65c4d6	0.22438368
158	0xbc9282bd	-0.017884606
159	0xbdac7d49	-0.08422334
160	0x3daa78b8	0.083238065
161	0xbe07fe8c	-0.13280696
162	0xbdcdf8f0	-0.10057247
163	0x3dfe2fa6	0.12411432
164	0xbe967578	-0.29386497
165	0xbe1a07e6	-0.15042076
166	0x3e405e55	0.18785985
167	0x3e28bce0	0.164783
168	0xbd004f68	-0.031325728
169	0x3dcda865	0.10041884
170	0x3d67097e	0.056405537
171	0xbd8fde8b	-0.070248686
172	0x3e13f1cd	0.14447708
173	0x3dfdfc99	0.12401695
174	0x3e93cf87	0.28869268
175	0x3d9fa370	0.07794845
176	0x3e0c7e10	0.13719964
177	0x3d373ee4	0.04473771
178	0x3e6cc2d6	0.23121199
179	0x3d4d260c	0.050085112
180	0xbd8f76f6	-0.07005112
181	0xbda4df7f	-0.08050441
182	0x3e507215	0.20356019
183	0xbe19c0b4	-0.15014917
184	0x3e6e895d	0.23294587
185	0x3e4f4d20	0.20244265
186	0xbdb44728	-0.088026345
187	0x3d05af31	0.03263778
188	0x3dc32624	0.09528759
189	0xbe019dde	-0.12657878
190	0xbd880fd4	-0.06643644
191	0x3e25e895	0.16202004
192	0x3e437c10	0.19090295
193	0x3e3d2940	0.18472767
194	0xbe5e41ed	-0.21704836
195	0xbd952024	-0.07281521
196	0x3e39825c	0.18116134
197	0xbe0bc5b4	-0.13649637
198	0x3e64887e	0.22317693
199	0x3d90ed79	0.07076544

bias f4 [10]
0	0x3e82798a	0.25483352
1	0x3dfff17c	0.12497231
2	0xbcc64abf	-0.024205564
3	0x3e26c87a	0.16287413
4	0x3dc8aa63	0.09798124
5	0x3e5f9e21	0.21837665
6	0x3ba55466	0.0050454615
7	0xbe0429b3	-0.12906532
8	0xbd194007	-0.037414577
9	0xbe23b9ad	-0.15988798

weight f4 [10]
0	0x3f95be50	1.1698704
1	0x3f951e9e	1.1649969
2	0x3f9ccbc6	1.2249687
3	0x3fac4017	1.3457059
4	0x3fa940e3	1.3222927
5	0x3f99a1be	1.2002485
6	0x3f97ffdd	1.1874958
7	0x3f9b2c38	1.212287
8	0x3fa0d736	1.2565677
9	0x3fa1c517	1.2638272

bias f4 [10]
0	0xbdcfedc2	-0.101527706
1	0xbd901189	-0.070345946
2	0xbcf761f9	-0.030198084
3	0xbdbc74ea	-0.09201987
4	0x3df19590	0.11796105
5	0xbc1da400	-0.00962162
6	0xbc03a856	-0.00803574
7	0x3d46849b	0.048466306
8	0x3e1d45be	0.15358636
9	0xbd1fea44	-0.039041772

running_mean f4 [10]
0	0x3e9eb4db	0.30997357
1	0x3e717f04	0.23583609
2	0x3dcd1046	0.100128695
3	0x3e8b541b	0.27212605
4	0x3dcab299	0.09897346
5	0x3e9cb567	0.3060715
6	0x3d8097ce	0.062789544
7	0x3be0bba7	0.0068583074
8	0x3dbbf757	0.09178036
9	0x3d9feed4	0.07809225

running_var f4 [10]
0	0x3c9f207e	0.019424673
1	0x3dc581e7	0.096439175
2	0x3d1088de	0.035286777
3	0x3cfbf659	0.030757116
4	0x3c2cf6e2	0.010556908
5	0x3df39180	0.11892986
6	0x3be97646	0.007124695
7	0x3a8a7c88	0.0010565678
8	0x3d02f52a	0.031972088
9	0x3d874958	0.06605786

weight f4 [20, 10, 4]
0	0xbd0b7e78	-0.034056157
1	0x3ca8b49a	0.02059393
2	0xbe26793d	-0.16257186
3	0x3b84c017	0.004051219
4	0x3e715cc5	0.23570545
5	0x3e819578	0.25309348
6	0x3e5bb835	0.21456988
7	0x3e754886	0.23953447
8	0xbdc4d95d	-0.09611771
9	0x3d84e0c0	0.0648818
10	0x3d610848	0.05493954
11	0xbe2b169a	-0.1670784
12	0x3da74fbd	0.08169506
13	0x3e60f58d	0.2196867
14	0x3e67d4a5	0.22639711
15	0x3dfa7534	0.12229386
16	0x3ddcce43	0.10781529
17	0xbd8dc34b	-0.06922015
18	0xbdb877b8	-0.090072095
19	0x3e7db851	0.24777342
20	0x3e080077	0.13281427
21	0x3e709fd6	0.23498473
22	0xbd5fe7f4	-0.054664567
23	0x3d82eb08	0.06392485
24	0xbe1132a2	-0.14179471
25	0xbe1f3e31	-0.15551068
26	0x3e31213b	0.17297833
27	0x3d1e4a60	0.03864515
28	0x3e0eeeeb	0.13958327
29	0x3e2eac6a	0.17057958
30	0x3e703dae	0.23461029
31	0x3e9dcd12	0.3082052
32	0x3d8a8262	0.0676315
33	0x3daa61ba	0.08319421
34	0x3e26d2d0	0.16291356
35	0x3da7d31c	0.08194563
36	0xbd71c4d9	-0.05902562
37	0xbdf677e6	-0.120345876
38	0xbdfddb88	-0.12395388
39	0xbdc48d8a	-0.09597309
40	0xbd44e9c5	-0.048074502
41	0xbdaedd60	-0.08538318
42	0xbe1f72b0	-0.15571094
43	0xbd83b56e	-0.06431089
44	0x3e5b667c	0.21425813
45	0xba0abb21	-0.00052921666
46	0x3de097c1	0.10966445
47	0xbe5c3589	-0.21504797
48	0xbe92a2a4	-0.2863971
49	0xbde5f789	-0.11228854
50	0x3dd5fcf0	0.104486346
51	0x3dda6a72	0.10664834
52	0x3d3ea79e	0.04654657
53	0xbe043e7f	-0.12914465
54	0xbe98defc	-0.29857624
55	0xbea9739e	-0.3309602
56	0x3e08ee05	0.13372047
57	0x3e696c23	0.22795157
58	0x3e826f40	0.25475502
59	0x3e348c5b	0.17631666
60	0x3da0fe0e	0.07860957
61	0x3e5973f7	0.21235643
62	0x3e11beab	0.1423289
63	0xbe1cf177	-0.15326487
64	0xbdc2b997	-0.09508055
65	0x3e657e93	0.22411565
66	0x3e7d842c	0.24757451
67	0x3d7db280	0.06193781
68	0x3e263818	0.16232336
69	0xbc93a62f	-0.018023578
70	0x3d140e89	0.036146674
71	0xbdae8440	-0.085213184
72	0x3e87c265	0.265155
73	0x3e56f603	0.20992284
74	0x3e01f1fb	0.12689964
75	0xbe04c089	-0.12964071
76	0xbe23172a	-0.15926805
77	0xbe80dd98	-0.25169063
78	0xbdaa10e7	-0.08304005
79	0x3cfdde23	0.030989712
80	0x3d8544d9	0.06507272
81	0xbdb2a45e	-0.08722757
82	0xbd39e249	-0.045381818
83	0xbde3aa3f	-0.11116456
84	0x3d063c9f	0.032772657
85	0x3e485d6d	0.19566889
86	0x3ddd0afa	0.10793109
87	0x3c4035ff	0.011731624
88	0xbe470cdf	-0.19438504
89	0xbe8528f0	-0.26007795
90	0x3b529cac	0.003213684
91	0xbe0eab8e	-0.1393263
92	0x3d666e59	0.05625758
93	0x3e10ef37	0.14153753
94	0xbdfdb553	-0.123881005
95	0xbe4f3ef2	-0.20238855
96	0x3e607094	0.21917945
97	0x3e8c86db	0.27446637
98	0x3d74a470	0.059727132
99	0x3dea1384	0.114295036
100	0x3d514329	0.05108944
101	0x3e0ea042	0.13928321
102	0xbc2a298f	-0.010385885
103	0xbc8e4bb5	-0.017370084
104	0x3e310c06	0.17289743
105	0x3d6dd2c8	0.058062345
106	0x3e4a2c49	0.19743456
107	0x3e6a5838	0.22885215
108	0x3dd1579d	0.10221789
109	0x3cfbdd6c	0.03074523
110	0xbe374989	-0.17899145
111	0xbdd8e598	-0.105906665
112	0x3e88d5c0	0.26725578
113	0x3e105ff6	0.14099106
114	0x3e29af2c	0.16570729
115	0x3da9cce7	0.08291035
116	0x3c9d5425	0.019205162
117	0x3ca8f337	0.020623786
118	0xbe6fc0a5	-0.23413332
119	0xbe6787aa	-0.22610345
120	0xbe5ec758	-0.21755731
121	0xbe3193bf	-0.17341517
122	0xbe737d29	-0.23778214
123	0xbdfb7c06	-0.12279515
124	0xbe14fe38	-0.14550102
125	0xbe5be12f	-0.2147262
126	0xbd74eff8	-0.059799165
127	0xbe4c471f	-0.19949006
128	0x3e85ac8f	0.26108214
129	0x3ca42569	0.02003737
130	0xbd07ab69	-0.033122454
131	0x3caa54f9	0.020792471
132	0xbd8cc6ca	-0.068738535
133	0xbe2b92fc	-0.16755289
134	0xbe36574c	-0.17806739
135	0xbe876dc0	-0.2645092
136	0xbe29bab8	-0.16575134
137	0xbe50f111	-0.2040446
138	0xbe119dc2	-0.14220336
139	0xbe92fddf	-0.28709313
140	0x3e51e9d0	0.20499349
141	0x3ddc7044	0.107636005
142	0x3d3024fc	0.04300402
143	0xbd2447e2	-0.040107615
144	0x3dad07b5	0.084487356
145	0xbe0c7b3f	-0.1371889
146	0xbe47eaa0	-0.19523096
147	0xbd4e8173	-0.05041642
148	0x3e8165f3	0.25273094
149	0x3dce1fd7	0.10064667
150	0xbdf4106e	-0.11917196
151	0xbe549309	-0.20759214
152	0xbc85a28d	-0.016312862
153	0x3e0abced	0.13548632
154	0xbd0a9c2c	-0.033840343
155	0xbea0ee31	-0.31431726
156	0x3dc0566b	0.09391483
157	0x3d81cb36	0.063375875
158	0x3e17fac2	0.1484175
159	0x3dd61a22	0.10454203
160	0x3da90588	0.08253008
161	0x3da3bd38	0.07995075
162	0x3de82849	0.11335809
163	0xbdd46659	-0.10371084
164	0xbe6dd060	-0.2322402
165	0xbdee76e4	-0.1164377
166	0xbde68562	-0.112559095
167	0xbd22b278	-0.039720982
168	0xbbf85108	-0.007578019
169	0xbd80182c	-0.062546104
170	0xbdf57c37	-0.11986583
171	0x3e5593ce	0.20857164
172	0xbd6d311b	-0.05790816
173	0xbe1e4e4d	-0.15459557
174	0xbe4686f7	-0.19387423
175	0xbda6f6e2	-0.08152558
176	0x3da8e436	0.08246653
177	0xbe6506e3	-0.22365908
178	0x3e169c54	0.14708072
179	0x3e33a291	0.17542483
180	0xbe306707	-0.17226802
181	0xbe71df70	-0.23620391
182	0xbda6dc7b	-0.08147522
183	0x3e215cf4	0.15758115
184	0x3e13e07a	0.144411
185	0x3dffa3e5	0.12482432
186	0x3da3df99	0.08001632
187	0x3e479a6e	0.19492504
188	0x3d44c9a6	0.04804387
189	0x3cc781fa	0.02435397
190	0xbd2a5069	-0.04158059
191	0x3e06103b	0.13092129
192	0x3e226af5	0.15861113
193	0xbd8f29fc	-0.0699043
194	0xbc60384a	-0.013685295
195	0x3dce5801	0.10075379
196	0x3d8de1c5	0.06927828
197	0x3bc5bf53	0.0060347705
198	0x3de08b18	0.1096403
199	0x3e398def	0.1812055
200	0xbdc7fd64	-0.09765127
201	0x3e0b3dec	0.1359784
202	0x3dd8b5a7	0.105815224
203	0x3e1d04cf	0.15333866
204	0xbe397d24	-0.18114144
205	0xbdd821f7	-0.10553353
206	0xbd8e72d9	-0.06955499
207	0x3e0e7eff	0.13915633
208	0x3d881911	0.06645406
209	0x3e0869f3	0.13321666
210	0x3e39a1da	0.18128148
211	0xbd9f2500	-0.07770729
212	0xbe068761	-0.1313758
213	0xbceb1f49	-0.028701441
214	0x3e0a08f8	0.13479984
215	0x3e01fa27	0.12693082
216	0xbd94e93a	-0.07271047
217	0xbe422188	-0.18958104
218	0xbe0fb857	-0.14035164
219	0xbdd0e523	-0.10199954
220	0x3e1ab67e	0.15108678
221	0xbda831c0	-0.08212614
222	0x3e90a6a2	0.2825213
223	0x3e60569f	0.21908043
224	0xbe1b6d97	-0.15178524
225	0xbe182f77	-0.14861856
226	0xbe236b5d	-0.15958925
227	0x3df7337d	0.120703675
228	0xbd43f10f	-0.047837313
229	0x3cfe75b4	0.031061985
230	0xbdf19c13	-0.11797347
231	0x3e0ba18c	0.13635844
232	0x3e1fd033	0.15606765
233	0x3e2d25d9	0.16908969
234	0x3db2c1c9	0.08728368
235	0x3e16fe95	0.14745553
236	0x3e6a3a0c	0.22873706
237	0x3e35bb1e	0.17747161
238	0x3d4e2b8c	0.0503345
239	0x3e3c33c5	0.18379124
240	0x3be41820	0.0069608837
241	0x3d37838c	0.044803187
242	0x3e849e7d	0.25902167
243	0xbb586378	-0.0033018272
244	0x3e404fb5	0.18780406
245	0xbda5b9d5	-0.08092085
246	0xbe11d50f	-0.14241432
247	0xbd690824	-0.05689253
248	0x3e00cbda	0.12577763
249	0x3d88927e	0.06668566
250	0x3e041bde	0.12901255
251	0x3e4f8b4a	0.20267978
252	0x3e0c71ce	0.13715288
253	0xbe48de48	-0.19616044
254	0xbe0fe8e1	-0.1405368
255	0xbdf03dd4	-0.11730543

bias f4 [20]
0	0x3e53c1e2	0.20679429
1	0x3e4521d6	0.19251189
2	0x3e8647f3	0.26226768
3	0x3d87d4f3	0.06632414
4	0x3db9bbc1	0.09069014
5	0xbc6a0a67	-0.014284707
6	0x3e098f35	0.13433535
7	0x3c789fb5	0.015174796
8	0x3dd85cb8	0.1056456
9	0x3e333fe5	0.17504843
10	0x3e6843ca	0.2268211
11	0xbc3362a2	-0.010948809
12	0x3e48dd7a	0.19615737
13	0x3e6eefab	0.23333614
14	0x3d432959	0.047646854
15	0x3e46a4c9	0.19398798
16	0xbc81ba8f	-0.015836028
17	0x3df0cbe5	0.1175764
18	0x3de2ede8	0.11080533
19	0x3e05923d	0.13044067

weight f4 [30, 840]
0	0xbd149136	-0.036271296
1	0xbd2ef925	-0.04271807
2	0xbd13eed4	-0.036116436
3	0xbcce40d2	-0.025177393
4	0xbc3ad9a8	-0.011404432
5	0xbd02b16a	-0.031907476
6	0x3d451973	0.048119973
7	0x3d2be3d5	0.041965324
8	0x3d6527bf	0.055946108
9	0xbc6497a2	-0.013952168
10	0x3cf3bc46	0.029752862
11	0xbc33a031	-0.010963486
12	0xbce73119	-0.028221654
13	0xbd32fedf	-0.043700095
14	0xbc89b9f9	-0.016812311
15	0xbcf1b81d	-0.029506737
16	0x3bb22b08	0.0054372586
17	0xbd26c091	-0.04071099
18	0x3cbff6c9	0.023433106
19	0xbce762c3	-0.028245335
20	0xbc880d42	-0.016607884
21	0xbce116d5	-0.027476707
22	0x3b4f67b3	0.0031647503
23	0x3d5e7dff	0.054319378
24	0x3c9812f5	0.018563727
25	0x3d37e98d	0.044900466
26	0x3cda3a84	0.02663923
27	0x3c215f8b	0.009849439
28	0xbc5ca1c1	-0.0134662995
29	0xbb71713e	-0.003684118
30	0xbd550b4a	-0.05201272
31	0xbd44cbff	-0.04804611
32	0xbcc3f550	-0.023920685
33	0x3cc899df	0.024487434
34	0x3d21ce4b	0.039503377
35	0x3c4abcff	0.012374162
36	0x3c8f1161	0.017464342
37	0xbd7599f7	-0.059961285
38	0xbd25e5cb	-0.04050235
39	0x3c29a3fb	0.010354037
40	0xbd09a0d7	-0.033600654
41	0xbd4db9ce	-0.050226025
42	0xbd643d85	-0.055722732
43	0xbd0c0ae3	-0.03419007
44	0xbd30eee3	-0.04319657
45	0xbd42ec74	-0.04758878
46	0xbd241739	-0.04006121
47	0x3c6c9aa6	0.014441168
48	0x3c0d09c9	0.00860829
49	0x3c85f3b1	0.016351553
50	0x3d268085	0.04064991
51	0xbc8b761f	-0.017024098
52	0xbb32c17c	-0.002727597
53	0xbb09b657	-0.0021013224
54	0xbcda2077	-0.026626809
55	0xbd90cb51	-0.070700295
56	0xbbbe8df6	-0.005815263
57	0xbd504931	-0.05085105
58	0x3a1ef69c	0.00060639693
59	0x3c160860	0.00915727
60	0x3bd142dd	0.0063861446
61	0x3b62488c	0.0034528105
62	0x3cda8173	0.026673054
63	0xbb4add2b	-0.003095458
64	0x3d7177d9	0.058952186
65	0xbd146365	-0.036227603
66	0x3e1bab9b	0.15202181
67	0x3de38c71	0.111107714
68	0x3e0ceeb3	0.13762932
69	0x3ceb6917	0.028736634
70	0xbd657688	-0.056021243
71	0xbcc75d2c	-0.02433642
72	0xbc1f968d	-0.009740484
73	0xbd006a4d	-0.031351376
74	0xbcd1bbaf	-0.02560219
75	0xbaab860d	-0.0013086215
76	0xbcbed8ef	-0.023296801
77	0xbd07b38a	-0.033130206
78	0xbd136e30	-0.035993755
79	0xbd0c7da9	-0.034299526
80	0xbc45d326	-0.0120742675
81	0xb9f81a26	-0.00047321728
82	0x3b94577e	0.0045270314
83	0x3ca8753c	0.020563714
84	0xbd2ac659	-0.041693065
85	0xbcb27c76	-0.021787863
86	0xbcc039cb	-0.023465058
87	0xbc21f409	-0.009884843
88	0xbcea8b8f	-0.028631
89	0x36868e70	4.010093e-06
90	0xbca99d01	-0.020704748
91	0x3d25c8c4	0.04047467
92	0x3c8c71c7	0.017144097
93	0xbc96593e	-0.0183531
94	0x3caff185	0.02147747
95	0x3cfa4a9f	0.03055316
96	0x3cf32a4e	0.029683258
97	0xbd07ff59	-0.033202503
98	0xbd3c09ac	-0.04590766
99	0xbca02087	-0.01954676
100	0xbd2df221	-0.04246724
101	0xbd19732e	-0.03746336
102	0xbd60af65	-0.05485477
103	0x3c552f05	0.013011699
104	0x3ceb7e77	0.028746827
105	0x3d71e73f	0.059058424
106	0x3d89ce3e	0.06728791
107	0x3cc91ace	0.024548914
108	0x3d5c6336	0.053805552
109	0x3d938896	0.07203786
110	0x3d900fab	0.070342384
111	0x3ace88d2	0.0015757328
112	0xbd67ff08	-0.0566397
113	0xbd25f81d	-0.040519822
114	0xbcdcbcbf	-0.02694547
115	0xbd9e2819	-0.07722492
116	0xbdc0a2a1	-0.09406019
117	0xbd9820cb	-0.0742813
118	0xbd84063e	-0.06446503
119	0xbc38c63b	-0.011277731
120	0x3a907a98	0.0011022864
121	0xbcbeb8db	-0.023281505
122	0xb98c2d48	-0.00026736618
123	0xbc4a8f19	-0.012363219
124	0xbcde5028	-0.02713783
125	0x3c93cc06	0.018041622
126	0xbb403740	-0.0029329807
127	0xbcbb1275	-0.02283595
128	0xbc8d1783	-0.017223125
129	0x3cd62533	0.026140785
130	0xbce88ff0	-0.028388947
131	0xbd2f9ccb	-0.04287414
132	0xbd556025	-0.052093644
133	0xbd1454c6	-0.03621366
134	0x3b8a0fcc	0.004213309
135	0xbc4cac96	-0.01249232
136	0xbadb5474	-0.0016733543
137	0x3ae88db2	0.0017742424
138	0x3a86e21e	0.0010290777
139	0xbc2ecdaf	-0.010669156
140	0xbc0ee4e3	-0.008721563
141	0xbd00096d	-0.03125899
142	0xbc9877fd	-0.018611902
143	0xbd962225	-0.07330731
144	0xbd007092	-0.031357355
145	0x3d8ed000	0.069732666
146	0xbcd9004e	-0.026489403
147	0xbc2f4d2d	-0.0106995525
148	0x3d743b28	0.05962673
149	0x3d1a2898	0.03763637
150	0xbc06769e	-0.0082069915
151	0xbd2afa17	-0.04174241
152	0xbdbadff7	-0.09124749
153	0x3ca16b57	0.019704504
154	0x3b9898e6	0.004656899
155	0xbc45660f	-0.012048258
156	0xbcdbdcf9	-0.026838766
157	0xbc4a893d	-0.012361822
158	0x3c861302	0.016366486
159	0x3cab84e6	0.020937394
160	0x3d275408	0.040851623
161	0x3d286b23	0.0411178
162	0x3d62d3d6	0.055377804
163	0x3bb1f83f	0.0054312046
164	0x3c795972	0.015219079
165	0xbcae883e	-0.0213052
166	0xbceedae6	-0.029157113
167	0xbc481378	-0.012211673
168	0x3d5386d1	0.051642243
169	0x3d1d3279	0.038378213
170	0x3c5e0ec7	0.013553328
171	0x3c9d1106	0.019173156
172	0xbd1d9fed	-0.038482595
173	0xbcd0ea0a	-0.025502224
174	0x3d01694d	0.031594563
175	0xbc982ab9	-0.01857506
176	0xbd46fd5b	-0.048581462
177	0xbcdadcf0	-0.02671668
178	0xbd33b8a3	-0.043877255
179	0xbd3b4093	-0.04571588
180	0xbcbf888c	-0.02338054
181	0xbc910fb7	-0.017707689
182	0xbce63234	-0.02810011
183	0x3bcc8f45	0.006242665
184	0x3d0a00e6	0.033692263
185	0xbb526d0b	-0.0032108452
186	0xbcb9c9a1	-0.022679152
187	0x3cf49b54	0.029859222
188	0x3c8b4533	0.01700077
189	0xbdb2c8f9	-0.08729739
190	0xbd9f9b95	-0.07793347
191	0x3c9d4110	0.019196063
192	0xbe03b839	-0.12863244
193	0xbd4a2765	-0.049353976
194	0xbd6808d2	-0.056649037
195	0xbcf4b422	-0.02987105
196	0xbcb72232	-0.022355173
197	0xbbf987ad	-0.0076150508
198	0x3b886b12	0.0041631544
199	0xbb784563	-0.0037883155
200	0xbcb8ac9c	-0.022543244
201	0xbc1b51e7	-0.009479976
202	0x3cd98f1b	0.026557496
203	0xbcf57f89	-0.02996804
204	0xbd038168	-0.032105833
205	0xbccf9940	-0.02534163
206	0xbcca3368	-0.024682716
207	0x3c1d1a68	0.009588815
208	0xbc09ed50	-0.008418396
209	0x3ca38b3d	0.019963855
210	0x3d34e02b	0.044159096
211	0x3d1e06c1	0.03858066
212	0x3d026e9a	0.03184376
213	0x3c81159d	0.015757376
214	0x3c93e7d0	0.018054873
215	0x3d39ae1c	0.04533206
216	0x3c80c93f	0.015720962
217	0x3ca6edaa	0.020376999
218	0xbd04c06a	-0.032410063
219	0x3d3b92c9	0.045794282
220	0x3d180771	0.03711647
221	0x3c5eadd6	0.01359125
222	0xbd0a2a65	-0.033731837
223	0xbd81d13a	-0.06338735
224	0xbd9762d3	-0.07391896
225	0xbd582a6b	-0.052774828
226	0xbd4c2f03	-0.04984952
227	0xba7775c4	-0.00094398507
228	0x3d5c455f	0.053777095
229	0x3d0b6651	0.034033123
230	0x3a085b6e	0.00052016124
231	0x3c7e654a	0.015527079
232	0xbd6d66cd	-0.057959367
233	0x3db18eea	0.08669837
234	0x3e230fd6	0.1592401
235	0x3da16c1a	0.07881947
236	0x3d6e96b5	0.058249194
237	0x3ca932bc	0.020654075
238	0x3c98eedf	0.01866859
239	0x3ccb3d27	0.024809433
240	0x3c95f2ac	0.018304192
241	0x3ce67418	0.02813153
242	0x3c87ff4e	0.016601231
243	0x3c29c150	0.010361031
244	0xbc75616d	-0.014976841
245	0xbba46c29	-0.0050177765
246	0xbcc7d418	-0.024393126
247	0x3c76a53a	0.0150540415
248	0xbc901680	-0.017588854
249	0x3d2b6e2e	0.041853122
250	0xbbea2247	-0.0071451995
251	0xbd5fa204	-0.05459787
252	0x3d300ccc	0.042980954
253	0x3cc88104	0.024475582
254	0x3c9533de	0.018213209
255	0x3cba5dd9	0.022749828

bias f4 [30]
0	0xbcb0b844	-0.02157224
1	0x3d090ef8	0.03346154
2	0xbd7c4a92	-0.061594553
3	0x3d09e624	0.033666745
4	0xbc9604e7	-0.018312884
5	0x3b33331b	0.0027343694
6	0x395d418d	0.00021100622
7	0x3cc45cc8	0.023970023
8	0xbcc1332f	-0.023583977
9	0x3d21933f	0.039447065
10	0xbd2a1325	-0.041522164
11	0x3d23545b	0.03987537
12	0xbd2dfe13	-0.042478632
13	0xbb2ddf9d	-0.002653099
14	0x3d37be68	0.04485932
15	0xbc2f9a63	-0.010717961
16	0xbcef7bb0	-0.029233783
17	0x3a3cf851	0.0007208633
18	0x3cacfe48	0.021117344
19	0x3cb86250	0.022507817
20	0x3d3d2c99	0.04618511
21	0x3b6fcc93	0.0036590442
22	0x3d0a73ae	0.033801727
23	0x3d064516	0.03278073
24	0x3d251309	0.040301356
25	0x3d07aaf0	0.033122003
26	0x3c48bf60	0.012252659
27	0x3cd41bc7	0.025892152
28	0x3d29f80b	0.041496318
29	0x3d1e038d	0.038577605

weight f4 [20, 30]
0	0x3e5e62bd	0.21717353
1	0xbe8a2044	-0.26977742
2	0x3eabef66	0.33581084
3	0x3e092170	0.13391662
4	0x3de91039	0.11380047
5	0xbe4081b8	-0.18799484
6	0x3da72920	0.08162141
7	0xbd9cbf79	-0.07653708
8	0xbe8b2976	-0.2718007
9	0xbe5fc13f	-0.21851061
10	0x3e789e76	0.24279198
11	0x3d5191b0	0.05116433
12	0xbda68636	-0.081310675
13	0xbe469d12	-0.19395855
14	0xbdeb8f83	-0.11501982
15	0xbe0f6011	-0.1400149
16	0x3e123286	0.14277086
17	0x3b256110	0.0025234856
18	0xbd0e8137	-0.034791198
19	0xbda31846	-0.07963614
20	0x3e42cd19	0.19023551
21	0xbdf938aa	-0.12169011
22	0xbd2a1d79	-0.041532014
23	0xbe5b8895	-0.2143882
24	0xbe7a1540	-0.24422169
25	0x3d22ab6b	0.03971426
26	0xbec26cb9	-0.37973574
27	0x3c2fc696	0.010728499
28	0xbe78f049	-0.24310412
29	0x3bb9e538	0.005673077
30	0x3e40aa5c	0.18814987
31	0xbd88c0e2	-0.066774145
32	0x3e97f775	0.29680982
33	0x3d4d1bbd	0.05007528
34	0xbd84a165	-0.06476096
35	0x3ddc72cc	0.10764083
36	0x3e29f37d	0.1659679
37	0xbcea88a6	-0.028629612
38	0xbe19020f	-0.14942192
39	0xbea83168	-0.32850194
40	0x3e90f598	0.28312373
41	0x3e21543c	0.15754789
42	0xbe91ff81	-0.28515247
43	0xbe3c4afc	-0.1838798
44	0xbe085bd2	-0.13316277
45	0xbec14251	-0.37745908
46	0x3e83ee9d	0.25767985
47	0xbe44b872	-0.19210985
48	0xbe18cdb4	-0.1492222
49	0x3e219a02	0.15781406
50	0xbe3571bf	-0.17719172
51	0xbe18a0f5	-0.1490515
52	0x3d422558	0.047398895
53	0xbc27bc69	-0.010237792
54	0xbe5eb4ae	-0.21748611
55	0xbd6607b1	-0.05615968
56	0xbdd94d8b	-0.10610493
57	0xbc469b00	-0.012121916
58	0xbeb1d054	-0.34729254
59	0x3d844356	0.06458156
60	0xbe0498ae	-0.12948868
61	0xbe617b5a	-0.22019711
62	0x3db3ce8d	0.08779631
63	0x3e93da52	0.28877503
64	0xbe545348	-0.20734894
65	0x3bd2f8d6	0.006438355
66	0x3d7543ba	0.059879042
67	0xbddbe55d	-0.10737107
68	0xbd28213a	-0.041047312
69	0xbe202ba8	-0.15641654
70	0xbe2d04d2	-0.1689637
71	0x3d7e81aa	0.062135376
72	0xbe89721d	-0.26844874
73	0x3e99aa48	0.30012727
74	0x3e2717a7	0.16317616
75	0xbc9d82eb	-0.019227466
76	0x3e220fc5	0.15826328
77	0x3e7338ed	0.23752184
78	0xbd1109a9	-0.035409603
79	0xbec07f47	-0.37597105
80	0x3d590dfc	0.052991852
81	0x3e4a3c00	0.1974945
82	0x3dc29ec9	0.09502942
83	0x3cea5879	0.02860664
84	0xbe38b9c0	-0.18039608
85	0xbe718d60	-0.23589087
86	0xbe4b0a8c	-0.19828242
87	0xbdf6092f	-0.120134704
88	0xbcbeb4ef	-0.023279635
89	0x3e4918b5	0.19638331
90	0x3e2f0140	0.1709032
91	0xbd2268db	-0.03965078
92	0x3dcd5f5d	0.10027955
93	0x3e473ba9	0.19456352
94	0xbd82c030	-0.06384313
95	0x3e9c1c47	0.30490324
96	0x3d574760	0.052558303
97	0x3d05fb2d	0.032710243
98	0xbd9371d3	-0.071994446
99	0xbe64e6f1	-0.22353722
100	0x3c79d136	0.015247634
101	0xbe17da8b	-0.14829461
102	0xbe9bcc18	-0.3042915
103	0x3d8b7e22	0.06811167
104	0x3e3a63e4	0.18202168
105	0x3a56ddde	0.0008196513
106	0x3e696d49	0.22795595
107	0xbe2a478b	-0.16628854
108	0xbdadfa97	-0.08495062
109	0x3bfaf2eb	0.0076583526
110	0x3d11d4a0	0.035603166
111	0x3e8cb3da	0.27480966
112	0x3e34e008	0.17663586
113	0xbe464bec	-0.193649
114	0xbe24c210	-0.16089654
115	0xbe1602f4	-0.14649564
116	0xbe275d2a	-0.16344133
117	0xbcbec330	-0.023286432
118	0xbe89da17	-0.26924202
119	0xbbaae717	-0.0052155363
120	0xbdd11129	-0.10208351
121	0xbc2dccb1	-0.010607884
122	0x3c033f24	0.008010659
123	0x3eb9016c	0.36133897
124	0xbe379632	-0.17928389
125	0x3e1f220d	0.15540333
126	0x3dfd68b2	0.12373485
127	0x3d9e0ee3	0.07717683
128	0x3e201d45	0.15636165
129	0xbea426f1	-0.3206096
130	0xbdafa16f	-0.08575713
131	0x3b9ebabe	0.0048440387
132	0xbea3a1c0	-0.31959343
133	0x3e88f03d	0.26745787
134	0xbddfa133	-0.10919418
135	0x3e480fa4	0.19537216
136	0xbbc2c496	-0.005943845
137	0x3ce38cec	0.027777158
138	0xbe3573d4	-0.17719966
139	0xbe52c7c4	-0.20584017
140	0x3e3cc09b	0.18432848
141	0x3bf2bcba	0.007407752
142	0x3e4c0915	0.1992534
143	0x3dcb8492	0.09937395
144	0xbe34e109	-0.17663969
145	0xbe85e28d	-0.26149407
146	0x3e6a597e	0.22885701
147	0xbe12c8e0	-0.1433444
148	0xbe0ea3a4	-0.13929611
149	0x3e1324e2	0.14369538
150	0xbd9e99e9	-0.077442
151	0x3c8ee10b	0.017441293
152	0xbd433c15	-0.04766472
153	0x3e615cf9	0.22008123
154	0xbdb713ec	-0.08939347
155	0xbe8a8588	-0.27055
156	0x3e1b3eca	0.15160671
157	0x3ddefbd4	0.10887876
158	0x3dd37850	0.10325682
159	0x3e7ad931	0.24496914
160	0xbddb4da2	-0.10708167
161	0xbd67a2da	-0.05655179
162	0x3e1fcaa6	0.15604648
163	0x3dcff7b7	0.1015467
164	0x3eb22eba	0.34801275
165	0x3df4248e	0.11921035
166	0xbb51d6ae	-0.0032018828
167	0x3e9f0c61	0.31064132
168	0x3ea67487	0.32510778
169	0x3e1026f3	0.14077358
170	0x3da120de	0.07867597
171	0xbdbb6e25	-0.09151868
172	0x3e679bcf	0.2261803
173	0x3d898d9d	0.06716464
174	0x3e61084a	0.21975818
175	0x3dd52e5d	0.10409234
176	0xbc6eb563	-0.014569613
177	0xbda82304	-0.08209804
178	0x3e905fa1	0.2819796
179	0x3e0f737f	0.14008902
180	0x3d0ab46c	0.03386347
181	0xbe53160e	-0.20613882
182	0xbd889426	-0.06668882
183	0xbe1e45ee	-0.15456364
184	0x3db5eefd	0.08883474
185	0x3d086358	0.033297867
186	0xbde43de3	-0.111446165
187	0x3d662c2a	0.056194462
188	0xbe2dcae6	-0.16971931
189	0x3da7bbcd	0.08190117
190	0xbdea61f4	-0.11444464
191	0xbdde6beb	-0.108604275
192	0xbdcef88c	-0.10106
193	0xbe125df9	-0.1429366
194	0xbe32aa1e	-0.17447707
195	0x3db10d9b	0.08645173
196	0x3d9a945d	0.07547829
197	0xbd2cb30e	-0.042162947
198	0xbdbc748a	-0.092019156
199	0x3d353f4a	0.04424981
200	0xbdb080ef	-0.08618342
201	0xbb2d575f	-0.0026449782
202	0xbe39976a	-0.18124166
203	0x3d3280e9	0.04357997
204	0x3d0c4bcf	0.034251984
205	0x3db33a6e	0.08751379
206	0xbd96bf4e	-0.07360707
207	0xbdf44807	-0.119278006
208	0xbe4735dc	-0.1945414
209	0xbdf08bdf	-0.11745428
210	0x3cd85196	0.02640609
211	0xbdddbec3	-0.108274005
212	0xbd9d0174	-0.07666293
213	0xbd29956c	-0.041402265
214	0x3e416f12	0.18890026
215	0xbe156b3e	-0.14591691
216	0x3d0f6728	0.035010487
217	0xbe0570d8	-0.13031328
218	0x3e5f1bdf	0.21787976
219	0x3e231ffb	0.15930168
220	0xbe807620	-0.25090122
221	0x3e420f68	0.1895119
222	0x3d9add02	0.07561685
223	0x3d393f30	0.045226276
224	0x3df9c528	0.12195808
225	0x3ed6cb7f	0.4195213
226	0xbd559c34	-0.05215092
227	0x3db3d9dd	0.087817885
228	0x3e3dab32	0.18522337
229	0xbe4c9eef	-0.19982503
230	0x3df6626d	0.12030492
231	0x3e490938	0.19632423
232	0x3dbc994a	0.09208925
233	0xbdb3625c	-0.08758995
234	0x3e899063	0.2686797
235	0x3b843dd9	0.004035693
236	0x3d518f9f	0.05116236
237	0xbd689090	-0.05677849
238	0x3e3ccca4	0.18437439
239	0x3da810b1	0.08206309
240	0xbd49eadc	-0.049296245
241	0x3d104a89	0.035227332
242	0x3e502f9c	0.20330662
243	0x3e086c4a	0.13322559
244	0x3e14091f	0.14456604
245	0xbeb7f354	-0.35927832
246	0x3e0060cc	0.12536925
247	0x3e2a022b	0.1660239
248	0x3d2a1dfd	0.041532505
249	0x3eb51c50	0.35373163
250	0xbe8d0532	-0.27543026
251	0x3de721da	0.112857535
252	0x3e251c84	0.16124159
253	0xbe2d336e	-0.1691415
254	0x3e60a579	0.21938123
255	0x3e31d218	0.173653

bias f4 [20]
0	0x3dd79668	0.105267346
1	0x3e179b89	0.14805426
2	0xbdfad8c8	-0.12248379
3	0x3e211e9b	0.15734331
4	0xbddca4b4	-0.10773602
5	0x3d682ab1	0.05668134
6	0xbe506d5c	-0.20354217
7	0x3c6d7065	0.014492129
8	0xbd822751	-0.06355155
9	0xbdf2d0ad	-0.11856208
10	0x3d651e80	0.05593729
11	0x3d211438	0.039325923
12	0x3bb36835	0.005475069
13	0xbe200d8b	-0.15630166
14	0x3e2a4c85	0.16630752
15	0x3e0ec970	0.1394403
16	0xbd59ab0a	-0.05314163
17	0xbaed85af	-0.0018121506
18	0x3e320bc9	0.17387308
19	0x3b5d6fd1	0.0033788572

weight f4 [5, 20]
0	0xbeba1e31	-0.3635116
1	0xbe2bcb07	-0.16776668
2	0x3e47ede1	0.19524337
3	0x3e015854	0.12631351
4	0x3e6ce113	0.23132734
5	0x3e306cbb	0.17228977
6	0xbe817b79	-0.25289515
7	0x3e20ee6a	0.15715948
8	0x3da06e06	0.07833485
9	0xbebe6cc5	-0.3719236
10	0xbe8f0a6a	-0.27937633
11	0x3e9f1979	0.31074122
12	0x3e18cb3c	0.14921278
13	0xbe998378	-0.29983115
14	0xbdaf4389	-0.08557803
15	0xbe8cd0e3	-0.27503118
16	0x3c1d4f8f	0.009601488
17	0xbdb89367	-0.0901249
18	0xbbc1a338	-0.00590935
19	0xbd41f8cf	-0.047356423
20	0xbdec74b5	-0.115456976
21	0x3e1938d1	0.1496308
22	0xbe21edc2	-0.15813354
23	0x3e20e840	0.15713596
24	0x3e5d2c38	0.215989
25	0x3cc27fa5	0.023742506
26	0x3e22d254	0.15900546
27	0xbe85412c	-0.26026285
28	0xbec6ef78	-0.38854575
29	0xbe68d06e	-0.2273576
30	0x3e4616eb	0.1934468
31	0xbe1f7a63	-0.1557403
32	0x3dcc62a5	0.099797525
33	0xbe7f53a5	-0.24934252
34	0x3e865cb6	0.26242608
35	0x3e026869	0.12735142
36	0x3dfa910f	0.12234699
37	0x3e6bfd08	0.23045743
38	0xbdf482b0	-0.11938989
39	0x3e0f35ad	0.1398532
40	0x3e90a8d4	0.28253806
41	0x3e7b0dc5	0.24516971
42	0xbd71467c	-0.05890511
43	0x3e2ffc3d	0.17186065
44	0xbe89199d	-0.26777354
45	0xbe855580	-0.26041794
46	0x3b238c6b	0.0024955522
47	0x3d4101eb	0.04712097
48	0xbe0a4208	-0.13501751
49	0xbda1611f	-0.078798525
50	0x3e2ef76c	0.17086571
51	0xbe4aeac5	-0.1981612
52	0x3e91bdc5	0.28465095
53	0xbd150e56	-0.036390625
54	0xbeb96d75	-0.36216322
55	0x3ca5b92d	0.0202299
56	0xbe15ab42	-0.14616111
57	0xbe812a66	-0.2522766
58	0xbe0e835c	-0.13917297
59	0x3e63b959	0.22238673
60	0xbe966c5d	-0.2937955
61	0xbe9e93c5	-0.30972114
62	0xbead6c00	-0.3387146
63	0xbe6d7bb1	-0.23191716
64	0xbe8e6bf9	-0.27816752
65	0x3e768701	0.24074937
66	0x3df3e139	0.11908192
67	0x3e1e8d90	0.1548369
68	0x3e6f1007	0.23345958
69	0x3d4ad6a0	0.04952109
70	0xbba2c06d	-0.0049667866
71	0xbe850288	-0.25978494
72	0xbea1a180	-0.31568527
73	0x3ec8a705	0.39189926
74	0xbdafe3ce	-0.08588372
75	0xbeb67a77	-0.35640308
76	0xbe2041a0	-0.15650034
77	0x3e8145c7	0.25248548
78	0x3e9fce22	0.31211954
79	0xbdaded69	-0.08492548
80	0x3e9d312b	0.30701575
81	0x3ddf2842	0.108963504
82	0x3e318cd2	0.17338875
83	0x3e5f1ab0	0.21787524
84	0x3c9f4dc6	0.019446265
85	0x3e113f19	0.14184226
86	0xbe709844	-0.23495585
87	0xbe22d46c	-0.15901345
88	0x3d170c69	0.03687707
89	0x3ec621f2	0.38697773
90	0xbe8b8d0d	-0.2725605
91	0xbe608bb6	-0.21928295
92	0xbeb9c3c7	-0.3628218
93	0x3e330db9	0.17485704
94	0xbeb9f4ef	-0.36319682
95	0x3e18a0d7	0.14905106
96	0xbe2eb6b6	-0.17061886
97	0x3e850a48	0.25984406
98	0xbea2fae3	-0.31832036
99	0x3c4866eb	0.012231569

bias f4 [5]
0	0x3e4e0e4f	0.20122646
1	0xbcd2e632	-0.025744531
2	0x3dacd3a8	0.08438808
3	0x3e3addbf	0.18248652
4	0x3e32b85d	0.17453142
