save/6_CNN_limiteddata_100epochs.pth (torch, 121059 bytes, 20 tensors)

weight f4 [5, 1, 3]
0	0x3e9ef98f	0.31049773
1	0xbdd6e123	-0.1049216
2	0x3ed6b63d	0.41935912
3	0xbe1f9276	-0.15583214
4	0xbe9c0e22	-0.30479532
5	0x3ddd7689	0.108136244
6	0x3d5d435a	0.05401931
7	0x3da8a814	0.08235183
8	0x3e094c98	0.13408124
9	0xbeff4fd7	-0.498656
10	0x3ec32d8a	0.3812068
11	0x3f13d394	0.5774472
12	0x3e022d85	0.12712677
13	0x3e612d64	0.21989971
14	0xbef29592	-0.47379738

bias f4 [5]
0	0x3d456703	0.048193943
1	0xbefa3d18	-0.48874736
2	0x3f0b6b89	0.5446096
3	0xbe7c22ca	-0.24622646
4	0xbf0c73c6	-0.54864156

weight f4 [5]
0	0x3f773875	0.9657052
1	0x3f6d6a89	0.92740685
2	0x3f886d64	1.0658383
3	0x3f7fc19b	0.99904794
4	0x3f7c68b0	0.9859724

bias f4 [5]
0	0x3cb75340	0.022378564
1	0x3d04c7ea	0.032417215
2	0xbd4fbdd0	-0.05071813
3	0x3d00f738	0.031485766
4	0xbcba9703	-0.022777086

running_mean f4 [5]
0	0x3d6bc9e8	0.0575656
1	0x3b64c96c	0.0034910096
2	0x3eeb22ae	0.45924896
3	0x3c5cf9cd	0.0134872915
4	0x3108cbe8	1.9906512e-09

running_var f4 [5]
0	0x3cf6bf87	0.030120624
1	0x3a50727a	0.00079516286
2	0x3ca719e2	0.020398084
3	0x3bc5f200	0.0060408115
4	0x2e595237	4.941311e-11

weight f4 [10, 5, 4]
0	0xbd0c17b7	-0.034202304
1	0xbe4a9e2e	-0.19786903
2	0xbbff34f8	-0.007788297
3	0x3d7f23ff	0.062290188
4	0x3da885e8	0.082286656
5	0xbe2a51ea	-0.1663281
6	0xbd7cf3ea	-0.061756052
7	0xbcc1a6da	-0.023639131
8	0xbd4e90d2	-0.05043108
9	0x3ca0abee	0.019613232
10	0xbd7ede24	-0.06222357
11	0x3da9dcbd	0.082940556
12	0xbe6b9545	-0.2300616
13	0xbb958e55	-0.0045640864
14	0x3e40b6ed	0.1881978
15	0x3e01becc	0.1267044
16	0xbe10c799	-0.1413864
17	0xbdda728d	-0.1066638
18	0xbd964ae3	-0.07338502
19	0x3e03c36d	0.12867518
20	0x3cdb9af1	0.02680728
21	0xbe6dfa49	-0.23240007
22	0xbe89c309	-0.26906613
23	0x3e023074	0.12713796
24	0x3cf61ca7	0.03004296
25	0xbdab051c	-0.08350584
26	0xbe51d5cb	-0.20491712
27	0x3dba8262	0.091069
28	0xbe35304e	-0.17694208
29	0xbe29d3f2	-0.16584757
30	0x3e3abe9d	0.18236776
31	0x3e32c858	0.17459238
32	0x3d8499ab	0.06474622
33	0x3e050636	0.1299065
34	0xbd9cf14f	-0.076632135
35	0xbdd43ac1	-0.10362769
36	0x3b41f96a	0.0029598125
37	0xbe33b05c	-0.17547745
38	0xbe0886c0	-0.13332653
39	0x3dd1d7fe	0.10246275
40	0xbdea9245	-0.1145368
41	0x3ddb8686	0.10719018
42	0x3cc78525	0.02435548
43	0xbce0f2ff	-0.02745962
44	0x3cbd3f58	0.023101494
45	0x3e0aed88	0.13567173
46	0x3d2c8632	0.042120166
47	0xbdbaa0ad	-0.09112678
48	0x3e4b7b38	0.19871223
49	0x3e075666	0.13216552
50	0x3e1b4e5e	0.15166613
51	0x3db50bad	0.088401176
52	0x3e0e093e	0.13870713
53	0xbe250101	-0.16113664
54	0xbe137e0a	-0.14403549
55	0x3d545293	0.05183656
56	0x3d4388a3	0.04773773
57	0xbe230645	-0.1592036
58	0x3d9bc487	0.07605844
59	0x3df7c4f9	0.120981164
60	0x3d82b1d4	0.06381574
61	0xbdad5cd7	-0.084649734
62	0x3e352c0e	0.17692587
63	0x3e4baa60	0.19889212
64	0x3dcbf3af	0.09958588
65	0xbe2a7493	-0.16646032
66	0x3e1a042c	0.15040654
67	0xbde75148	-0.112948
68	0xbe10496b	-0.14090507
69	0xbe4e9241	-0.20172979
70	0xbe1312f0	-0.14362693
71	0x3d43fb09	0.047846828
72	0x3e1b5474	0.15168935
73	0x3e0ca4fb	0.1373481
74	0x3c58fbfe	0.013243673
75	0xbe3c1db0	-0.183707
76	0x3db915be	0.0903735
77	0x3e18f77f	0.14938162
78	0x3d65fd5f	0.056149837
79	0xbd877032	-0.066131964
80	0xbe21aa55	-0.15787633
81	0xbd3be561	-0.04587305
82	0xbe01eb4e	-0.12687418
83	0x3dcf6d7b	0.101283036
84	0x399d010e	0.0002994616
85	0x39c65c23	0.0003783415
86	0xbd098dd5	-0.033582527
87	0x3db8dfa3	0.0902703
88	0xbe84f14f	-0.25965354
89	0x3e0bfb81	0.1367016
90	0x3d9a415c	0.075319976
91	0x3e0e63ae	0.13905212
92	0xbe8271f3	-0.2547756
93	0xbe0b0a82	-0.13578227
94	0x3dcdbc6e	0.10045706
95	0xbcf627b0	-0.030048221
96	0x3df55c50	0.11980498
97	0x3d8dddc9	0.06927068
98	0xbe08faf9	-0.13376988
99	0xbe7ff7f7	-0.24996935
100	0xbe00723c	-0.12543577
101	0x3db9a547	0.09064727
102	0xbdc5e265	-0.09662322
103	0xbd69d72b	-0.057089966
104	0x3dae8226	0.085209176
105	0xbc3118b8	-0.010809116
106	0xbe83ef11	-0.2576833
107	0x3e1d4028	0.15356505
108	0xbe575cf1	-0.21031548
109	0xbdf11041	-0.11770678
110	0x3d63ce7b	0.055616837
111	0x3e16e0ba	0.14734164
112	0xbe2eb266	-0.17060241
113	0x3d3d038b	0.046145957
114	0x3d519ce9	0.05117503
115	0x3e293ada	0.16526356
116	0xbd3fe2a9	-0.04684702
117	0xbcfb543c	-0.030679815
118	0xbca53d12	-0.020170722
119	0x3e3fc6e9	0.18728222
120	0x3bee4cfb	0.0072723604
121	0xbe222296	-0.15833506
122	0x3e06f634	0.13179857
123	0xbe112984	-0.14175993
124	0x3e19d0d5	0.1502107
125	0xbdbc28ec	-0.09187493
126	0x3dcec6d3	0.100965165
127	0xbe2d7f0d	-0.16942997
128	0xbe2b5335	-0.1673096
129	0xbc9a25fd	-0.018816942
130	0xbe1a7faa	-0.15087762
131	0xbe3196fc	-0.17342752
132	0x3e196540	0.1498003
133	0xbd9a91a4	-0.0754731
134	0xbe02e289	-0.12781729
135	0x3d4c8e74	0.04994054
136	0xbe5268c0	-0.20547771
137	0xbd9fa31c	-0.077947825
138	0x3e09c5ad	0.13454314
139	0xbe525ae4	-0.20542485
140	0xbd15fd79	-0.036618683
141	0x3e235392	0.15949848
142	0xbe5aa71c	-0.2135281
143	0xbe43cc14	-0.19120818
144	0x3e10fd7e	0.141592
145	0xbbaf8197	-0.0053560245
146	0xbe1c345a	-0.15254346
147	0x3d9c6191	0.07635797
148	0x3dcf38c7	0.10118251
149	0x3e47b1bd	0.19501396
150	0x3e202e98	0.15642774
151	0xbe0c0454	-0.13673526
152	0x3dfb6937	0.122759275
153	0xbe551eae	-0.20812485
154	0x3dd24820	0.10267663
155	0x3db8f69e	0.090314135
156	0xbe35fa28	-0.17771208
157	0xbc901bf1	-0.017591449
158	0xbe106edf	-0.14104794
159	0x3d8c445e	0.068489775
160	0x3da1878f	0.07887184
161	0x3c0890e9	0.0083353305
162	0xbde65382	-0.112463966
163	0x3dd32ef1	0.10311688
164	0x3dd124df	0.10212111
165	0xbc84e3ce	-0.016221907
166	0xbddb1445	-0.106972255
167	0x3c701f0a	0.014655838
168	0xbe79b9ad	-0.24387236
169	0x3d9040ba	0.070435956
170	0x3de9752a	0.113993004
171	0x3d8edbe0	0.069755316
172	0x3d0f3938	0.034966677
173	0x3d2fc59b	0.04291306
174	0xbdf24cc1	-0.11831046
175	0xbdf79b89	-0.12090213
176	0xbe406e0d	-0.18791981
177	0xbd44718a	-0.04795984
178	0xbdf26b4d	-0.11836872
179	0x3e0274d9	0.12739886
180	0x3e1a7698	0.15084302
181	0xbe09677b	-0.13418381
182	0x3cc3a67d	0.023883099
183	0x3e0f6d6d	0.14006586
184	0xbe1e4228	-0.15454924
185	0xbdc4818d	-0.09595022
186	0x3d5aaa4a	0.053385057
187	0x3ddc3ca3	0.10753753
188	0xbe55168d	-0.20809384
189	0x3e43f59d	0.19136663
190	0x3db4f3c4	0.08835557
191	0xbcffd7c2	-0.031230811
192	0xbd65927c	-0.0560479
193	0x3d0e5547	0.034749296
194	0xbe03fdda	-0.12889805
195	0x3b673eb0	0.0035285167
196	0x3d289589	0.041158233
197	0xbdc5383a	-0.09629865
198	0x3e44095a	0.19144192
199	0xbe32dcb8	-0.1746701

bias f4 [10]
0	0xbdf19fd5	-0.11798064
1	0xbdd74e83	-0.10513022
2	0x3ca4f890	0.020138055
3	0x3a0eb4fd	0.00054438395
4	0x3d1c7c6e	0.038204603
5	0x3dc4c665	0.09608153
6	0xbded4c71	-0.11586846
7	0x3d613600	0.05498314
8	0x3d2ea21f	0.04263508
9	0xbe114d9b	-0.1418976

weight f4 [10]
0	0x3f8f5bd8	1.1199903
1	0x3f96b652	1.177439
2	0x3f8de733	1.1086181
3	0x3f8d8fc3	1.1059498
4	0x3f96fd4c	1.179605
5	0x3f91b74b	1.1384062
6	0x3f8bf22a	1.0933278
7	0x3f95eec7	1.1713494
8	0x3f93dada	1.1551163
9	0x3f91165b	1.1334947

bias f4 [10]
0	0x3dfc45f5	0.12318031
1	0xbd07629f	-0.033053037
2	0xbd53a738	-0.051673144
3	0x3d19b838	0.0375292
4	0x3d6e60fd	0.058197964
5	0x3d88a612	0.066723004
6	0xbbeeb28c	-0.007284468
7	0xbd7d2936	-0.06180688
8	0xbba270dd	-0.004957302
9	0xbd9e0c5b	-0.077172

running_mean f4 [10]
0	0x3ca96dd3	0.020682251
1	0x3ca250cb	0.019813916
2	0x3e4553d3	0.19270258
3	0x3e174757	0.14773308
4	0x3df99665	0.121868886
5	0x3e298a27	0.16556607
6	0x3e2bcef4	0.16778165
7	0x3dfc6380	0.123236656
8	0x3d8220b9	0.063538976
9	0x3c8bbd09	0.017057912

running_var f4 [10]
0	0x3d05d20a	0.032671012
1	0x3aeb16db	0.0017935889
2	0x3dceb9a7	0.10094004
3	0x3daf2020	0.08551049
4	0x3c2ed17e	0.010670064
5	0x3cff5458	0.031168148
6	0x3dbe5a40	0.092945576
7	0x3cd40e26	0.025885653
8	0x3b96c923	0.004601614
9	0x3b533c4b	0.0032231982

weight f4 [20, 10, 4]
0	0x3cf89edd	0.03034919
1	0xbe028b1f	-0.12748383
2	0x3c4a69e5	0.012354349
3	0x3c6c023f	0.014404832
4	0xbdb14a70	-0.08656776
5	0xbb9d9ed2	-0.0048101926
6	0x3cbd0643	0.023074275
7	0x3e7b6e40	0.24553776
8	0x3ddffa35	0.10936395
9	0x3cace0d6	0.021103304
10	0x3e27db90	0.1639235
11	0xbd889532	-0.06669082
12	0xbd27f9b3	-0.041009616
13	0x3dd8b0c4	0.1058059
14	0xbda83172	-0.08212556
15	0x3cacbd81	0.021086456
16	0x3cf7fdd3	0.0302724
17	0x3b4b5fcd	0.0031032444
18	0x3b4d92eb	0.0031368088
19	0x3e5c326c	0.2150361
20	0x3d2d7ab5	0.04235335
21	0xbcd2281d	-0.025653893
22	0xbd34a8a9	-0.04410616
23	0x3e54007d	0.20703311
24	0x3e2c82ae	0.16846725
25	0xbd91f2fc	-0.07126424
26	0x3dca2819	0.09870929
27	0x3e0abee0	0.13549376
28	0x3e2bcbf1	0.16777016
29	0xbc228c99	-0.009921216
30	0x3d6a566a	0.057211317
31	0x3c1a1018	0.009403251
32	0xbba4de82	-0.005031408
33	0x3dd99c80	0.10625553
34	0x3e239757	0.159757
35	0x3e2a3359	0.1662115
36	0x3db82833	0.089920424
37	0x3dc1ee94	0.09469333
38	0x3e7729d3	0.24137048
39	0x3e71034a	0.23536411
40	0xbe19841e	-0.14991805
41	0x3e609526	0.21931896
42	0x3e1d8ccd	0.15385742
43	0xbd3e99ef	-0.04653352
44	0xbe4a894f	-0.19778942
45	0x3dd675d5	0.104716934
46	0xbda4ca97	-0.080464534
47	0xbcf82a5a	-0.030293632
48	0xbddfb2ad	-0.109227516
49	0x3bb9c81f	0.0056696082
50	0xbd7fcd97	-0.062451925
51	0xbdeab596	-0.11460416
52	0x3e4e180d	0.20126362
53	0x3e1038b3	0.14084129
54	0x3e33c031	0.17553784
55	0x3d8a0996	0.067401096
56	0xbe253d1e	-0.16136596
57	0x3dbfb738	0.09361118
58	0x3dcd50ff	0.100252144
59	0xbe5720ae	-0.2100856
60	0x3e0682a4	0.13135773
61	0x3e00f5fc	0.12593836
62	0x3e7fb7e4	0.24972492
63	0x3e3a0cc7	0.18168937
64	0x3e1fa469	0.15590061
65	0x3e47c60d	0.19509144
66	0x3e5efe82	0.21776775
67	0x3e47668a	0.1947271
68	0xbe482525	-0.1954542
69	0x3d2db935	0.042412955
70	0xbdef77fd	-0.11692808
71	0x3d2b50a7	0.041824963
72	0xbdc9c81c	-0.09852621
73	0xbc0d9a71	-0.008642779
74	0xbda34a50	-0.07973158
75	0x3d6f4214	0.058412626
76	0xbda3567f	-0.07975482
77	0xbbb81b6e	-0.0056185042
78	0x3d735128	0.05940357
79	0xbc9be786	-0.019031297
80	0x3e4a813b	0.1977586
81	0xbdf72a2a	-0.12068589
82	0xbdf1b6f0	-0.11802471
83	0x3e95ea8f	0.29280517
84	0xbe869fc1	-0.26293758
85	0xbe84e689	-0.25957134
86	0xbe0cb8ac	-0.13742322
87	0x3e28fde1	0.16503097
88	0xbe332af7	-0.17496859
89	0x3bab2da0	0.005223945
90	0xbe4bb393	-0.19892721
91	0xbe529f3b	-0.20568554
92	0xbe479219	-0.19489326
93	0x3e405f84	0.18786436
94	0x3d04c917	0.032418337
95	0xbd30ee08	-0.043195754
96	0xbbde941a	-0.0067925574
97	0xbe63e633	-0.22255783
98	0xbe7b5243	-0.24543099
99	0x3e540e5a	0.207086
100	0x3d3f12a5	0.04664864
101	0xbd766ffd	-0.060165394
102	0xbc148997	-0.009066007
103	0x3e6778a0	0.22604609
104	0x3d7a158b	0.0610557
105	0x3e4d8831	0.20071484
106	0x3d883b23	0.066519044
107	0xbc52851d	-0.0128491195
108	0x3d9b4ab8	0.07582611
109	0xbe13dc52	-0.14439514
110	0xbda51537	-0.08060687
111	0xbe180d91	-0.14848925
112	0xbe274d4a	-0.16338077
113	0xbd807c46	-0.06273703
114	0xbe4f3bba	-0.20237628
115	0x3d03867c	0.032110676
116	0x3d884e4b	0.06655558
117	0xbe42035e	-0.18946597
118	0x3d8d84ce	0.06910096
119	0x3cfed8d6	0.031109255
120	0xbc7ce709	-0.015435942
121	0xbd457997	-0.04821166
122	0x3d36423a	0.044496752
123	0x3e137367	0.14399491
124	0x3c132668	0.008981325
125	0x3e66ce7d	0.22539707
126	0xbe45f2c9	-0.19330896
127	0xbe440128	-0.19141066
128	0xbe753a27	-0.23947965
129	0xbe711833	-0.23544388
130	0xbddf46e5	-0.10902194
131	0xbc76b00f	-0.015056624
132	0xbdcd0775	-0.10011188
133	0xbcb5887d	-0.02215981
134	0xbc520573	-0.012818682
135	0xbd6441aa	-0.055726685
136	0x3c827cbf	0.015928624
137	0x3ccdcf55	0.025123278
138	0x3da64273	0.08118143
139	0x3d71f1d5	0.05906852
140	0xbdd1ae74	-0.102383524
141	0xbda37c6e	-0.079827175
142	0x3d27390d	0.040825892
143	0xbd126d34	-0.035748675
144	0xbe306dfa	-0.17229453
145	0xbe441ba1	-0.19151165
146	0xbe385740	-0.18002033
147	0xbe4f56b1	-0.20247914
148	0xbe3d2ae8	-0.18473399
149	0xbd75fb72	-0.06005425
150	0xb903ed30	-0.00012581493
151	0xbde29fa0	-0.11065602
152	0xbe4c169a	-0.19930497
153	0xbc8904c2	-0.016725902
154	0xbe6e7eb7	-0.23290525
155	0xbd3cf3df	-0.04613101
156	0xbe65d4f2	-0.22444513
157	0xbe2a5e4e	-0.16637537
158	0xbe58ffa1	-0.21191265
159	0x3d8c6935	0.06856004
160	0x3d427d92	0.047483034
161	0x3e0efab4	0.13962823
162	0xbd31a496	-0.043369852
163	0x3e780119	0.24219169
164	0xbda51248	-0.080601275
165	0x3d82d67e	0.063885674
166	0x3d4a6f28	0.049422413
167	0x3d650c38	0.055919856
168	0xbe3ab7fc	-0.18234247
169	0x3b37f1ed	0.0028067783
170	0xbe2455a0	-0.16048288
171	0xbd68d519	-0.05684385
172	0xbdf3400b	-0.118774496
173	0x3e335f4a	0.17516819
174	0xbd72c748	-0.05927208
175	0x3ca6fb07	0.020383371
176	0xbd03d93a	-0.032189585
177	0x3c95bcb1	0.018278452
178	0xbd1e0594	-0.03857954
179	0x3e7d6b9a	0.24748078
180	0xbd8eb110	-0.06967366
181	0x3e086fa7	0.13323842
182	0x3e0acff4	0.1355589
183	0x3e7483a7	0.23878346
184	0x3e4ee8c2	0.20205978
185	0x3d7f3683	0.062307846
186	0xbdfe5061	-0.12417675
187	0x3d8d9039	0.06912274
188	0xbdac2f27	-0.08407431
189	0xbe216d49	-0.15764345
190	0xbe19bb5f	-0.15012883
191	0x3d3d9d12	0.046292372
192	0x3e0c7e42	0.13720039
193	0x3d4985ed	0.049199987
194	0xbe05762b	-0.13033359
195	0xbe057e54	-0.13036472
196	0xbe7a8cac	-0.24467725
197	0xbe71cf2b	-0.23614185
198	0x3e12bf3f	0.14330767
199	0x3c00ec38	0.007868819
200	0xbe02db10	-0.12778878
201	0xbd1b0341	-0.0378449
202	0xbd35e59d	-0.04440843
203	0x3de9a580	0.1140852
204	0xbca73f5a	-0.02041595
205	0x3e258d7c	0.16167253
206	0x3cdd8e9f	0.027045546
207	0xbdd3c613	-0.10340514
208	0xbe325d16	-0.17418322
209	0x3cf6219c	0.030045323
210	0xbd87185e	-0.065964445
211	0x3dcf6700	0.101270676
212	0x3e0ae567	0.13564073
213	0x3e3c1fdb	0.18371527
214	0x3e54fed3	0.20800333
215	0x3da053a2	0.07828452
216	0xbddc4cad	-0.10756812
217	0xbb2876f8	-0.0025705677
218	0xbd8ac06b	-0.06774982
219	0x3e06518a	0.13117042
220	0x3db60f40	0.088896275
221	0x3d491b6b	0.049098413
222	0x3e40d85a	0.18832532
223	0x3e329431	0.17439343
224	0x3e270013	0.16308622
225	0x3dab2e55	0.083584465
226	0x3e642133	0.2227829
227	0x3e15ae36	0.14617237
228	0x3d626b5a	0.05527816
229	0x3cc81c04	0.024427421
230	0xbe344de0	-0.17607832
231	0xbdae4cd8	-0.085107505
232	0xbe3e3fc3	-0.1857901
233	0xbd3f8195	-0.04675444
234	0x3e3387d6	0.17532286
235	0xbe4bd93e	-0.1990709
236	0xbd6f9268	-0.058489233
237	0xbd77b473	-0.060474824
238	0x3de3c40f	0.111213796
239	0x3ce886b9	0.028384553
240	0x3e2c630f	0.16834663
241	0xbce3d58e	-0.027811792
242	0x3e328367	0.17432939
243	0x3df7e027	0.121033005
244	0x3e1c6592	0.15273121
245	0x3e4d05fd	0.20021816
246	0x3df28cce	0.118432626
247	0xbe0b9c4e	-0.13633844
248	0x3e19809f	0.14990471
249	0x3b271caa	0.0025499263
250	0x3e236227	0.15955411
251	0x3e734144	0.23755366
252	0x3d245a7a	0.040125348
253	0x3e608b10	0.21928048
254	0xbd43b048	-0.047775537
255	0x3bf99b0c	0.00761736

bias f4 [20]
0	0x3de5624e	0.11200391
1	0x3da86312	0.08222021
2	0x3d452794	0.048133448
3	0x3da7fafd	0.08202169
4	0x3da91bb2	0.082572356
5	0x3e1fdb8b	0.15611093
6	0xbd3956b5	-0.045248706
7	0x3e128c94	0.14311439
8	0x3d142f64	0.036178008
9	0x3ceba9c1	0.028767468
10	0xbcf54778	-0.029941306
11	0x3d8ab47a	0.067727044
12	0x3e2f21d2	0.17102745
13	0x3cea9bfd	0.028638834
14	0x3e4e24e1	0.20131256
15	0x3d109b10	0.03530413
16	0x3ce7a848	0.028278485
17	0xbd18ec24	-0.037334576
18	0x3e582f28	0.21111739
19	0x3e11a423	0.1422277

weight f4 [30, 840]
0	0xbcd4df11	-0.025985273
1	0x3c9df5d4	0.019282259
2	0x3ce8c9d5	0.028416554
3	0x3cd2c180	0.025727034
4	0x3cfdc867	0.030979348
5	0xbd07cf19	-0.033156488
6	0xbcd1e11b	-0.025620034
7	0xbd98767e	-0.074444756
8	0xbda12932	-0.078691855
9	0xbd42f247	-0.047594335
10	0x3c480aef	0.012209638
11	0xbabe5fc1	-0.0014524386
12	0x3a6917b4	0.00088917767
13	0xbd0e3d3a	-0.03472636
14	0xbd17af42	-0.037032373
15	0xbd0ce91b	-0.034401994
16	0xbd996218	-0.07489413
17	0x3d327087	0.043564346
18	0x3d5d47f8	0.054023713
19	0x3d9a81e0	0.07544303
20	0xba3e077f	-0.0007249042
21	0x3c9151c4	0.017739184
22	0xbd290ea9	-0.041273747
23	0x3a36a4e3	0.0006967319
24	0x3d74bbae	0.059749298
25	0x3d1aed10	0.037823737
26	0x3cebd45b	0.028787782
27	0x3c2702b9	0.01019352
28	0xbc38cb47	-0.011278934
29	0xbc7a5e48	-0.015281267
30	0x3b68b142	0.0035506045
31	0x3d09d852	0.033653565
32	0x3c2e370d	0.010633242
33	0x3afdd4e0	0.001936581
34	0xbd2be5d7	-0.04196724
35	0xbca71a37	-0.020398242
36	0xbc1cae71	-0.009563074
37	0x3d3da1fe	0.046297066
38	0x3d8635ba	0.06553216
39	0x3c925b4f	0.017865805
40	0xbcfee56b	-0.031115254
41	0xbac4a419	-0.0015002518
42	0xbcb2fbcb	-0.02184858
43	0xbbf17e69	-0.0073698056
44	0xbbac1e2c	-0.00525262
45	0x3a985d58	0.0011624498
46	0xbc6172b3	-0.013760257
47	0xbc1d6dd5	-0.0096087055
48	0xbc0ac463	-0.008469674
49	0xbca5c8a4	-0.020237274
50	0xbd139cea	-0.036038317
51	0x3ac3bbda	0.0014933303
52	0x3c9c4a02	0.019078258
53	0xbc0206d8	-0.007936202
54	0x3ba65c93	0.0050769537
55	0x3cc64cc5	0.024206528
56	0x3d0296a9	0.031881962
57	0x3d311b0a	0.043238677
58	0x3c961f24	0.018325396
59	0x3c5b3728	0.0133798495
60	0xbd207e98	-0.03918323
61	0x3d0d7da5	0.034543652
62	0x3d491bbe	0.049098723
63	0x3c5cc9de	0.013475863
64	0xbd921935	-0.07133714
65	0xbae9becd	-0.0017833352
66	0x3d750213	0.05981643
67	0x3c7e9abd	0.015539822
68	0xbc43eef0	-0.011958823
69	0x3cd0b907	0.025478853
70	0x3c6ebdf4	0.014571656
71	0xbd1b4bc2	-0.037914045
72	0xbd177eec	-0.036986277
73	0xbb2a13de	-0.0025951783
74	0xbc1ce414	-0.009575862
75	0xbd30f296	-0.043200098
76	0xbd331f2e	-0.043730907
77	0xbb7755e7	-0.003774041
78	0xbbbe9c89	-0.0058170003
79	0xbd93b469	-0.07212145
80	0xbd745c8e	-0.05965858
81	0xbd2bcb32	-0.04194183
82	0x3c14fe42	0.009093823
83	0x3c7fad8d	0.015605343
84	0xbc11a43f	-0.008889257
85	0xbd1b0c37	-0.037853446
86	0xbd841646	-0.06449561
87	0xbc801431	-0.015634628
88	0x3af319f3	0.0018547162
89	0xbd3b2e93	-0.045698714
90	0x3c56f4f1	0.013119922
91	0xbc0b6e4a	-0.008510182
92	0xbd15844e	-0.03650313
93	0xbcffa57a	-0.031206835
94	0xbc1f4a5d	-0.009722319
95	0x3d873d33	0.0660347
96	0x3dab6606	0.08369069
97	0x3d7ddbf3	0.061977338
98	0x3d4b75d3	0.049672913
99	0x3d807f41	0.06274272
100	0x3d0de18f	0.034638938
101	0x3d23e897	0.040016737
102	0x3d31b129	0.043381844
103	0x3cde53f4	0.027139641
104	0x3df39095	0.11892811
105	0x3d5c6887	0.053810623
106	0x3d04339a	0.032275774
107	0x3d2c5b47	0.042079236
108	0x3c853538	0.016260728
109	0xbdb9110f	-0.09036457
110	0xbd50ad5c	-0.05094658
111	0xbd5bc6f4	-0.053656533
112	0xbd68356a	-0.056691565
113	0xbd2491e1	-0.040178183
114	0xbd32854e	-0.04358416
115	0x3d12bfd6	0.03582748
116	0x3caf1a86	0.021374952
117	0x3c917968	0.017758086
118	0x3bc90726	0.0061348854
119	0x3c97dce9	0.018537955
120	0xbd47666f	-0.048681673
121	0xbd3ab631	-0.045583908
122	0xbdaa9b7b	-0.08330437
123	0x3b17885e	0.0023122053
124	0xbce6c6c6	-0.028170954
125	0x3d78a1e7	0.060701277
126	0xbdc361b2	-0.09540118
127	0xbcfe0477	-0.031007988
128	0xbdb7ff9a	-0.08984299
129	0xbcf9bdaa	-0.030485947
130	0xbcbe0b36	-0.023198705
131	0xbd11d5d0	-0.035604298
132	0xbc815678	-0.015788302
133	0x3d124565	0.03571071
134	0x3d1a643a	0.03769324
135	0xbbde6155	-0.006786505
136	0xbbf0bab4	-0.0073464755
137	0x3d57c588	0.052678615
138	0x3d408d7f	0.04700994
139	0x3d5c40ad	0.053772617
140	0xbca757ee	-0.02042767
141	0x3d182ef2	0.037154146
142	0x3c89ef2b	0.016837677
143	0xbb4bdd18	-0.0031107124
144	0x3d08edb4	0.033429816
145	0x3da81d94	0.082087666
146	0xbd3101bb	-0.04321454
147	0xbdbc56c9	-0.091962405
148	0xbcf37a50	-0.02972141
149	0xbd94d642	-0.07267429
150	0xbd8c639b	-0.06854936
151	0xbd079fec	-0.033111498
152	0x3c849a94	0.01618699
153	0x3d2b9bf0	0.04189676
154	0xbc321247	-0.0108686155
155	0x3d308c79	0.043102715
156	0xbc8417ef	-0.016124694
157	0xbd0e2407	-0.034702327
158	0xbd89ddb6	-0.06731741
159	0xbd8b9db3	-0.06817188
160	0xbd7efa89	-0.062250648
161	0x3c06757f	0.008206724
162	0xbd90e7cd	-0.070754625
163	0xbd1b3dbd	-0.037900675
164	0xbd33d030	-0.043899715
165	0xbd7781b7	-0.06042644
166	0xbd6ff5dc	-0.05858408
167	0xbcbe0d98	-0.023199841
168	0x3b48d5ad	0.0030644939
169	0xbd487028	-0.048935086
170	0xbd558977	-0.05213305
171	0x3accdfb8	0.0015630638
172	0x3bad645c	0.005291505
173	0x3b5c53e4	0.0033619339
174	0x3ce0148d	0.02735355
175	0xbbc85c39	-0.0061145094
176	0xbd1bf3f4	-0.03807445
177	0xbc023dda	-0.007949317
178	0x3c89111b	0.01673179
179	0x3cfd2caf	0.030905096
180	0x3cf23842	0.029567841
181	0x3c976e7c	0.0184853
182	0x3d62abfe	0.055339806
183	0x3d3e74b2	0.046498008
184	0x3d3e03cd	0.046390343
185	0x3d604d1e	0.054761045
186	0x3d1a0475	0.037601907
187	0x3d31ffa2	0.04345668
188	0x3cef75a8	0.029230908
189	0x3d86017c	0.06543252
190	0xbd5d29c0	-0.053994894
191	0x3c6726f6	0.01410841
192	0xbc8dc2ab	-0.017304739
193	0x3ba28606	0.0049598245
194	0x3c0525a3	0.008126649
195	0x3bac0805	0.0052499794
196	0xbd06ba34	-0.03289242
197	0xbca34f0b	-0.019935152
198	0xbd4fbd22	-0.05071748
199	0xbca81ad6	-0.020520609
200	0xbc99d831	-0.018779846
201	0x3d546aec	0.05185978
202	0x3c9deb2c	0.019277178
203	0xbc34a9a4	-0.011026774
204	0xbdab17d7	-0.083541565
205	0xbd8ecd34	-0.06972733
206	0xbcaad6d2	-0.020854387
207	0xbc907047	-0.017631663
208	0x3d41f9e1	0.047357444
209	0xbc9c93bf	-0.01911342
210	0xbd1dea86	-0.038553737
211	0xbc40e83b	-0.011774118
212	0xbd224099	-0.039612386
213	0xbb480edf	-0.0030526442
214	0xbd07f5ba	-0.033193327
215	0xbb091059	-0.0020914285
216	0x3c3e1cf8	0.011603586
217	0xbbb7b469	-0.0056062234
218	0xbcc438d3	-0.023952877
219	0xbc2532be	-0.010082899
220	0xbd00cb28	-0.031443745
221	0x3d02c5e8	0.03192702
222	0x3d3b58fb	0.045739155
223	0x3cb047c9	0.021518605
224	0x3d0e7dd5	0.03478797
225	0x3d45ca00	0.048288345
226	0x3cf92255	0.030411879
227	0x3d0554f8	0.032551736
228	0xbc130344	-0.008972947
229	0x3d5df0e6	0.054184817
230	0x3cb6a65d	0.022296125
231	0xbb4b069f	-0.0030979288
232	0xbd59e55d	-0.053197253
233	0x3ca68865	0.02032871
234	0x3d41c428	0.04730621
235	0x3cbedfe1	0.023300113
236	0xbc177b73	-0.009245741
237	0x3cb86d73	0.022513127
238	0x3ca883b2	0.02057061
239	0xbd2238f6	-0.039605103
240	0xbd253c61	-0.040340785
241	0xbb1f30d7	-0.0024290585
242	0x3c2268f1	0.009912715
243	0x3b5ba1ee	0.0033513266
244	0x3ca11a93	0.019665992
245	0xbc5710e3	-0.013126585
246	0xbd003340	-0.031298876
247	0xbd64a3b8	-0.055820197
248	0xbd483e83	-0.04888774
249	0xbd097c99	-0.03356609
250	0x3d3d247b	0.04617737
251	0x3cb8783f	0.022518275
252	0xbdb31178	-0.08743566
253	0xbdc7ee79	-0.09762282
254	0xbc8f26d4	-0.01747457
255	0xbd8f88d6	-0.07008521

bias f4 [30]
0	0xbc8b0023	-0.016967839
1	0x3cf6eb0b	0.030141374
2	0x3cb3c695	0.021945277
3	0xbbe25f96	-0.0069083674
4	0x3c31d9d0	0.010855153
5	0xbc8dc3f9	-0.017305361
6	0x3d815d04	0.063165694
7	0x3cc24972	0.023716662
8	0x3ba8f418	0.0051560514
9	0x3c3616e6	0.011113858
10	0xbd52163a	-0.05129073
11	0x3d16e537	0.03683969
12	0xbcd92a2f	-0.026509373
13	0xbd121659	-0.035665844
14	0x3cf06ab1	0.02934775
15	0x3d46b5c7	0.0485132
16	0xbd13450b	-0.035954516
17	0xbca0c527	-0.01962526
18	0x3cd7b591	0.026331695
19	0x3c27e821	0.010248215
20	0xbbb2f028	-0.0054607578
21	0x3c9694b5	0.018381456
22	0xbcbd6760	-0.023120582
23	0x3d185c18	0.037197202
24	0x3d17f4aa	0.037098564
25	0x3d0a7a97	0.033808317
26	0xbc35e455	-0.011101802
27	0x3c412539	0.01178866
28	0x3b6d9bd6	0.0036256216
29	0x3c0945f0	0.008378491

weight f4 [20, 30]
0	0x3d8e322a	0.06943162
1	0xbd7b25f7	-0.061315503
2	0xbe18e6bc	-0.14931768
3	0xbb90eb94	-0.0044226144
4	0xbe196082	-0.14978221
5	0xbe013eda	-0.12621632
6	0x3e0bc23e	0.13648316
7	0x3deca291	0.115544446
8	0x3e32ca43	0.17459969
9	0x3cb8d0e4	0.022560544
10	0x3dd0377a	0.10166831
11	0x3ddfdf7e	0.109312996
12	0x3e0128b9	0.1261319
13	0xbe57036c	-0.20997399
14	0x3e062cb0	0.13102984
15	0x3de5202f	0.11187779
16	0x3cbd56e6	0.023112725
17	0xbe03bc55	-0.12864812
18	0x3db21098	0.08694571
19	0x3dcb6b75	0.09932605
20	0x3e2d4f04	0.16924673
21	0x3d9a7179	0.075411744
22	0xbc884202	-0.016633037
23	0xbc80e804	-0.015735634
24	0xbe0d1b65	-0.13779981
25	0x3def8035	0.116943754
26	0xbda95804	-0.08268741
27	0x3e51993b	0.20468609
28	0x3e0cc10b	0.13745515
29	0x3e68926c	0.22712106
30	0xbe4b3ecd	-0.19848175
31	0xbd9d7305	-0.07687954
32	0x3de8295a	0.11336012
33	0xbe606c2c	-0.21916264
34	0xbe3d5bf0	-0.18492103
35	0xbdbe5587	-0.09293657
36	0x3e3e2036	0.18566975
37	0x3d30155a	0.042989112
38	0x3e1e28b1	0.1544521
39	0x3db8cfa5	0.0902398
40	0x3bae9c90	0.0053287223
41	0x3e583efe	0.2111778
42	0xbe5121ac	-0.20423001
43	0xbe93ddc7	-0.2888014
44	0x3da3e171	0.08001984
45	0x3d9bf159	0.07614393
46	0x3e39125f	0.18073414
47	0x3d9409b4	0.07228413
48	0x3dd8a9ad	0.10579238
49	0x3e5a1447	0.21296798
50	0xbb92b20e	-0.004476792
51	0xbdedd2ea	-0.11612494
52	0xbd4d2ad6	-0.05008968
53	0x3e226127	0.15857373
54	0x3e07fc53	0.13279848
55	0xbd2984f0	-0.041386545
56	0x3d843065	0.06454543
57	0xbde36338	-0.11102909
58	0xbe557f6e	-0.20849392
59	0xbe40f729	-0.18844284
60	0xbb116ed0	-0.0022191294
61	0x3e687e2c	0.22704381
62	0x3e2ba52c	0.16762227
63	0x3e745f57	0.23864494
64	0x3e5de831	0.21670605
65	0x3e5a9e0b	0.21349351
66	0xbcde2136	-0.027115446
67	0x3e4351b1	0.19074132
68	0xbe683374	-0.22675878
69	0x3db73af5	0.08946792
70	0x3e584ab8	0.21122253
71	0xbdf9da12	-0.12199797
72	0xbc81b2fe	-0.01583242
73	0xbd174f17	-0.03694066
74	0xbe8ac5f1	-0.27104142
75	0x3d50c69e	0.050970666
76	0xbe4886bf	-0.19582652
77	0x3e335d98	0.17516172
78	0x3d46f87a	0.04857681
79	0xbe9df5eb	-0.30851683
80	0xbe1fa72c	-0.15591115
81	0x3e286179	0.16443433
82	0x3d713372	0.058886953
83	0xbd111f59	-0.035430286
84	0xbdc7fa79	-0.09764571
85	0xbc2c9b1d	-0.010535029
86	0x3d3897c2	0.045066603
87	0x3e010653	0.12600069
88	0x3d7c59c6	0.061609052
89	0xbd0f5ca7	-0.03500047
90	0x3e7a37f9	0.24435414
91	0x3e5e3fe9	0.21704067
92	0x3db44956	0.0880305
93	0x3e0d7335	0.13813479
94	0xbd044e85	-0.032301445
95	0xbde9c3b6	-0.11414282
96	0xbbbf90eb	-0.005846133
97	0xbd7ec71f	-0.062201615
98	0x3e2b16af	0.16707872
99	0xbe885705	-0.2662889
100	0xbe96aae0	-0.29427242
101	0x3e64a67a	0.22329131
102	0xbd303681	-0.04302073
103	0xbdc6a637	-0.09699672
104	0x3e7a1abd	0.24424262
105	0x3da82e1f	0.08211922
106	0x3d811af4	0.06303969
107	0xbe94702c	-0.2899183
108	0xbdd60361	-0.10449863
109	0x3e6cb6f2	0.23116663
110	0x3d42727e	0.04747247
111	0x3d74be84	0.059752002
112	0x3d6d7f64	0.057982817
113	0x3e83e416	0.25759953
114	0x3d9b3985	0.0757933
115	0xbe8a72fb	-0.27040848
116	0xbe3e8b85	-0.1860791
117	0xbd94c0ac	-0.07263312
118	0x3e38bbb5	0.18040355
119	0x3d4da0a8	0.050202042
120	0x3d9b1b0e	0.0757352
121	0xbe85d265	-0.2613708
122	0xbe2872cb	-0.1645004
123	0xbe70feef	-0.2353475
124	0x3d814c0d	0.06313334
125	0xbe77123b	-0.24128048
126	0x3dd71a1d	0.105030276
127	0x3e3f193b	0.18661968
128	0xbe2134d2	-0.15742806
129	0x3e52821b	0.20557444
130	0x3d1033bd	0.03520559
131	0xbd56b12f	-0.05241507
132	0xbd85b591	-0.06528772
133	0xbc727cfd	-0.014800307
134	0xbc2a4d03	-0.010394338
135	0x3e22358b	0.15840738
136	0x3e0b6592	0.13612965
137	0x3dcbb214	0.09946075
138	0x3d18637d	0.037204254
139	0x3de6412f	0.112429015
140	0x3c43182b	0.011907618
141	0x3d2da1bf	0.04239058
142	0xbdd24ce9	-0.10268576
143	0x3e3b1f3c	0.18273634
144	0xbcfd2f74	-0.030906416
145	0x3e8088ef	0.25104472
146	0x3dfab5a7	0.12241679
147	0xbe9f97b8	-0.3117044
148	0x3d564ffb	0.05232237
149	0x3e15cdab	0.14629237
150	0x3e56ed7a	0.20989028
151	0xbdeab035	-0.1145939
152	0xbe76fb20	-0.24119234
153	0x3d67d6f2	0.056601472
154	0x3da7be46	0.08190589
155	0x3d898ad9	0.06715936
156	0x3db93b45	0.09044508
157	0xbde2cc36	-0.110741064
158	0xbe37954b	-0.17928044
159	0x3dd2d7e3	0.102950834
160	0x3d9cf5c7	0.07664066
161	0x3e2cd06a	0.16876379
162	0x3e6231a1	0.22089244
163	0x3da47c09	0.0803147
164	0x3ce5871b	0.028018525
165	0xbd8df4a1	-0.06931425
166	0x3ddd4f92	0.108061925
167	0xbd995485	-0.07486824
168	0xbdc6cd05	-0.09707073
169	0x3df8ade7	0.12142544
170	0xbe2d7483	-0.16938977
171	0xbe1062a8	-0.14100134
172	0x3c516ea8	0.01278273
173	0x3e07af31	0.13250424
174	0xbdaa2f44	-0.083097965
175	0xbe003088	-0.12518513
176	0x3c8d13bd	0.017221326
177	0x3dfb0876	0.12257473
178	0xbd255b7e	-0.040370457
179	0x3e5f8733	0.21828918
180	0x3e1a20d8	0.15051591
181	0x3c612ac9	0.013743111
182	0xbe0869ac	-0.1332156
183	0xbcd605ac	-0.026125751
184	0xbdb41c8d	-0.08794508
185	0xbe377f56	-0.17919669
186	0x3cc068b3	0.023487424
187	0xbd07db5f	-0.033168193
188	0xbdb68f27	-0.08914023
189	0x3e3f0d3a	0.1865739
190	0xbd918748	-0.07105881
191	0xbcb209a8	-0.02173312
192	0x3daa8f8b	0.0832816
193	0xbd77d53d	-0.060506094
194	0xbe001ee0	-0.12511778
195	0xbd8f5b2e	-0.06999813
196	0x3e6cf811	0.23141505
197	0x3d912906	0.07087903
198	0x3e92fa67	0.28706667
199	0xbd2fec37	-0.04294988
200	0x3e2711b4	0.16315347
201	0xbda1ed9a	-0.07906647
202	0x3da6bae1	0.08141113
203	0x3e0e226e	0.13880321
204	0x3ca4829d	0.020081813
205	0xbd3de93a	-0.046365
206	0x3d9850c7	0.07437282
207	0x3d84c4ff	0.064828865
208	0xbd00e1ae	-0.031465225
209	0x3c94a0be	0.018143054
210	0xbd8b73bc	-0.06809184
211	0x3e50a303	0.20374684
212	0x3e8b3a10	0.27192736
213	0x3e4b076e	0.19827053
214	0x3e266838	0.16250694
215	0xbcae602e	-0.021286096
216	0x3e00cd78	0.1257838
217	0x3c5ecb07	0.01359821
218	0xbd57be79	-0.052671883
219	0xbca1611c	-0.019699626
220	0xbdc6371a	-0.096784785
221	0x3dfa9094	0.12234607
222	0xbd03c071	-0.03216595
223	0x3de859b7	0.11345237
224	0xbe858d33	-0.2608429
225	0x3e74708b	0.23871057
226	0xbe70eb1a	-0.23527184
227	0x3997a9e3	0.0002892754
228	0xbd5e81fa	-0.054323174
229	0xbdae272c	-0.08503565
230	0xbe15ae4a	-0.14617267
231	0xbdfb036d	-0.12256513
232	0xbd5dc9d2	-0.05414755
233	0xbdd39bac	-0.103324264
234	0x3dbe9f3f	0.093077175
235	0x3daac84a	0.08338983
236	0xbdcc14db	-0.09964915
237	0x3c3ed3b5	0.011647155
238	0xbd3d3457	-0.046192493
239	0xbd4c1a01	-0.049829487
240	0xbcba481c	-0.022739463
241	0xbd78bd36	-0.06072732
242	0x3e26939d	0.16267247
243	0x3e74baa1	0.23899318
244	0xbd511fbd	-0.05105566
245	0xbdbe433f	-0.0929017
246	0x3cbe2b51	0.023214014
247	0x3e48160b	0.19539659
248	0x3d0f8b6e	0.03504508
249	0x3badb942	0.0053016255
250	0x3dc18a34	0.09450188
251	0xbc902b82	-0.017598871
252	0x3e51e665	0.20498045
253	0x3da03071	0.078217395
254	0xbe8dfbed	-0.27731267
255	0xbd926a57	-0.07149189

bias f4 [20]
0	0x3e2cbb41	0.16868307
1	0x3c6e1f59	0.014533841
2	0xbca7e6ad	-0.020495737
3	0x3cc1909a	0.023628522
4	0x3d8fb368	0.07016641
5	0x3d459cb2	0.04824514
6	0xbd82f070	-0.06393516
7	0x3e29133a	0.1651124
8	0x3da3103f	0.07962083
9	0x3e2d1b0f	0.16904853
10	0xbc91a5f9	-0.017779337
11	0xbd8614b9	-0.06546921
12	0x3cd96f20	0.026542246
13	0xbceaffa9	-0.028686361
14	0x3dc617c0	0.09672499
15	0x3e467329	0.19379868
16	0x3df8dd11	0.1215154
17	0x3db3b8a1	0.087754495
18	0x3dc7d704	0.09757808
19	0xba27502a	-0.000638249

weight f4 [5, 20]
0	0x3dc7dc94	0.09758869
1	0x3ea91d6b	0.33030257
2	0xbe3d0791	-0.18459918
3	0x3d5d5daf	0.05404442
4	0x3e8e201a	0.27758867
5	0xbe99ad6e	-0.3001513
6	0x3c382b33	0.011240768
7	0xbe17e7b8	-0.14834487
8	0xbe27d8ae	-0.1639125
9	0xbe95ce4e	-0.2925896
10	0x3dd9d25d	0.10635827
11	0x3e75f608	0.24019635
12	0x3e742a3b	0.23844235
13	0xbe500ecf	-0.20318149
14	0x3d6bd365	0.05757465
15	0xbeaf2f5b	-0.34215817
16	0x3dc9084c	0.09816036
17	0x3e2d1dda	0.16905919
18	0xbe55a4d4	-0.20863658
19	0xbd79cbc7	-0.060985353
20	0xbe33f216	-0.17572817
21	0xbe629c2b	-0.22129886
22	0x3e7843c6	0.24244604
23	0xbe77c312	-0.24195507
24	0xbd82bfec	-0.063842624
25	0xbe964184	-0.2934686
26	0x3dd4cb88	0.10390383
27	0x3e866bca	0.26254112
28	0x3dd9128c	0.10599241
29	0xbd8d53d2	-0.06900753
30	0xbd94678e	-0.07246314
31	0xbd2e5172	-0.04255814
32	0x3e41e576	0.18935189
33	0x3e61af9a	0.22039643
34	0xbdf863f3	-0.12128439
35	0xbc557994	-0.013029475
36	0xbe8e5cb3	-0.278051
37	0x3d9258c2	0.071458355
38	0xbc6a8c66	-0.0143157
39	0x3ea2f13e	0.31824678
40	0x3ddaa279	0.106755204
41	0xbc25ac4f	-0.010111882
42	0xbe412988	-0.18863499
43	0xbde3c06d	-0.11120687
44	0x3e79c575	0.2439173
45	0x3d4fe7f6	0.050758325
46	0x3e353a49	0.17698015
47	0xbe9d2dc7	-0.30698988
48	0xbdf1e46c	-0.11811146
49	0x3e23f590	0.16011643
50	0xb9e4b6ef	-0.00043623845
51	0xbdb72655	-0.08942858
52	0xbe876588	-0.2644465
53	0x3e7661b1	0.24060704
54	0x3db75a6e	0.08952795
55	0xbe28ec49	-0.16496386
56	0xbe3284aa	-0.1743342
57	0xbd6fdddd	-0.058561195
58	0x3d29703a	0.041366793
59	0x3e1377f4	0.14401227
60	0x3e57633a	0.21033946
61	0xbdf743eb	-0.12073501
62	0xbe8d372f	-0.27581164
63	0x3e8196ce	0.25310367
64	0xbda21626	-0.07914381
65	0xbd1b9b33	-0.037989806
66	0xbe3c5a75	-0.18393882
67	0xbbe393bc	-0.0069451015
68	0xbe3f1a2d	-0.18662329
69	0x3e8cf785	0.27532592
70	0x3d2a308e	0.04155021
71	0xbe285ad8	-0.16440904
72	0x3e2df2e2	0.16987184
73	0xbeac4641	-0.3364735
74	0xbdbf7207	-0.09347921
75	0x3e856e31	0.26060632
76	0xbe131ac6	-0.14365682
77	0xbe898d0b	-0.2686542
78	0xbe43d740	-0.1912508
79	0xbe8e5f17	-0.27806923
80	0x3e4ea89d	0.20181508
81	0xbe4dd6ca	-0.20101467
82	0xbdbd6b83	-0.09249022
83	0xbdaf8788	-0.085707724
84	0x3dbfbad1	0.09361804
85	0x3d3a2c3e	0.04545235
86	0x38455632	4.7048736e-05
87	0xbdbf2def	-0.09334933
88	0x3e8cfd63	0.2753707
89	0xbe937d10	-0.28806353
90	0x3e7abcb5	0.24486049
91	0x3e436eaf	0.19085191
92	0xbe56145b	-0.20906202
93	0x3e2303fc	0.15919489
94	0xbe7c1c75	-0.2462023
95	0x3e6cd102	0.23126605
96	0x3e1d32b1	0.15351368
97	0xbe261d9a	-0.1622223
98	0xbea13367	-0.3148453
99	0xbd87a2b8	-0.06622833

bias f4 [5]
0	0xbd88a875	-0.06672756
1	0x3d08545d	0.03328358
2	0x3d7feca9	0.062481556
3	0xbdda5b5e	-0.10661958
4	0xbe41ad59	-0.18913783
